{"class_name": "Model", "config": {"name": "model_3", "layers": [{"name": "input_4", "class_name": "InputLayer", "config": {"batch_input_shape": [null, 662, 662, 3], "dtype": "float32", "sparse": false, "name": "input_4"}, "inbound_nodes": []}, {"name": "conv2d_407", "class_name": "Conv2D", "config": {"name": "conv2d_407", "trainable": false, "filters": 32, "kernel_size": [3, 3], "strides": [2, 2], "padding": "valid", "data_format": "channels_last", "dilation_rate": [1, 1], "activation": "linear", "use_bias": false, "kernel_initializer": {"class_name": "VarianceScaling", "config": {"scale": 1.0, "mode": "fan_avg", "distribution": "uniform", "seed": null}}, "bias_initializer": {"class_name": "Zeros", "config": {}}, "kernel_regularizer": null, "bias_regularizer": null, "activity_regularizer": null, "kernel_constraint": null, "bias_constraint": null}, "inbound_nodes": [[["input_4", 0, 0, {}]]]}, {"name": "batch_normalization_407", "class_name": "BatchNormalization", "config": {"name": "batch_normalization_407", "trainable": false, "axis": 3, "momentum": 0.99, "epsilon": 0.001, "center": true, "scale": false, "beta_initializer": {"class_name": "Zeros", "config": {}}, "gamma_initializer": {"class_name": "Ones", "config": {}}, "moving_mean_initializer": {"class_name": "Zeros", "config": {}}, "moving_variance_initializer": {"class_name": "Ones", "config": {}}, "beta_regularizer": null, "gamma_regularizer": null, "beta_constraint": null, "gamma_constraint": null}, "inbound_nodes": [[["conv2d_407", 0, 0, {}]]]}, {"name": "activation_407", "class_name": "Activation", "config": {"name": "activation_407", "trainable": false, "activation": "relu"}, "inbound_nodes": [[["batch_normalization_407", 0, 0, {}]]]}, {"name": "conv2d_408", "class_name": "Conv2D", "config": {"name": "conv2d_408", "trainable": false, "filters": 32, "kernel_size": [3, 3], "strides": [1, 1], "padding": "valid", "data_format": "channels_last", "dilation_rate": [1, 1], "activation": "linear", "use_bias": false, "kernel_initializer": {"class_name": "VarianceScaling", "config": {"scale": 1.0, "mode": "fan_avg", "distribution": "uniform", "seed": null}}, "bias_initializer": {"class_name": "Zeros", "config": {}}, "kernel_regularizer": null, "bias_regularizer": null, "activity_regularizer": null, "kernel_constraint": null, "bias_constraint": null}, "inbound_nodes": [[["activation_407", 0, 0, {}]]]}, {"name": "batch_normalization_408", "class_name": "BatchNormalization", "config": {"name": "batch_normalization_408", "trainable": false, "axis": 3, "momentum": 0.99, "epsilon": 0.001, "center": true, "scale": false, "beta_initializer": {"class_name": "Zeros", "config": {}}, "gamma_initializer": {"class_name": "Ones", "config": {}}, "moving_mean_initializer": {"class_name": "Zeros", "config": {}}, "moving_variance_initializer": {"class_name": "Ones", "config": {}}, "beta_regularizer": null, "gamma_regularizer": null, "beta_constraint": null, "gamma_constraint": null}, "inbound_nodes": [[["conv2d_408", 0, 0, {}]]]}, {"name": "activation_408", "class_name": "Activation", "config": {"name": "activation_408", "trainable": false, "activation": "relu"}, "inbound_nodes": [[["batch_normalization_408", 0, 0, {}]]]}, {"name": "conv2d_409", "class_name": "Conv2D", "config": {"name": "conv2d_409", "trainable": false, "filters": 64, "kernel_size": [3, 3], "strides": [1, 1], "padding": "same", "data_format": "channels_last", "dilation_rate": [1, 1], "activation": "linear", "use_bias": false, "kernel_initializer": {"class_name": "VarianceScaling", "config": {"scale": 1.0, "mode": "fan_avg", "distribution": "uniform", "seed": null}}, "bias_initializer": {"class_name": "Zeros", "config": {}}, "kernel_regularizer": null, "bias_regularizer": null, "activity_regularizer": null, "kernel_constraint": null, "bias_constraint": null}, "inbound_nodes": [[["activation_408", 0, 0, {}]]]}, {"name": "batch_normalization_409", "class_name": "BatchNormalization", "config": {"name": "batch_normalization_409", "trainable": false, "axis": 3, "momentum": 0.99, "epsilon": 0.001, "center": true, "scale": false, "beta_initializer": {"class_name": "Zeros", "config": {}}, "gamma_initializer": {"class_name": "Ones", "config": {}}, "moving_mean_initializer": {"class_name": "Zeros", "config": {}}, "moving_variance_initializer": {"class_name": "Ones", "config": {}}, "beta_regularizer": null, "gamma_regularizer": null, "beta_constraint": null, "gamma_constraint": null}, "inbound_nodes": [[["conv2d_409", 0, 0, {}]]]}, {"name": "activation_409", "class_name": "Activation", "config": {"name": "activation_409", "trainable": false, "activation": "relu"}, "inbound_nodes": [[["batch_normalization_409", 0, 0, {}]]]}, {"name": "max_pooling2d_9", "class_name": "MaxPooling2D", "config": {"name": "max_pooling2d_9", "trainable": false, "pool_size": [3, 3], "padding": "valid", "strides": [2, 2], "data_format": "channels_last"}, "inbound_nodes": [[["activation_409", 0, 0, {}]]]}, {"name": "conv2d_410", "class_name": "Conv2D", "config": {"name": "conv2d_410", "trainable": false, "filters": 80, "kernel_size": [1, 1], "strides": [1, 1], "padding": "valid", "data_format": "channels_last", "dilation_rate": [1, 1], "activation": "linear", "use_bias": false, "kernel_initializer": {"class_name": "VarianceScaling", "config": {"scale": 1.0, "mode": "fan_avg", "distribution": "uniform", "seed": null}}, "bias_initializer": {"class_name": "Zeros", "config": {}}, "kernel_regularizer": null, "bias_regularizer": null, "activity_regularizer": null, "kernel_constraint": null, "bias_constraint": null}, "inbound_nodes": [[["max_pooling2d_9", 0, 0, {}]]]}, {"name": "batch_normalization_410", "class_name": "BatchNormalization", "config": {"name": "batch_normalization_410", "trainable": false, "axis": 3, "momentum": 0.99, "epsilon": 0.001, "center": true, "scale": false, "beta_initializer": {"class_name": "Zeros", "config": {}}, "gamma_initializer": {"class_name": "Ones", "config": {}}, "moving_mean_initializer": {"class_name": "Zeros", "config": {}}, "moving_variance_initializer": {"class_name": "Ones", "config": {}}, "beta_regularizer": null, "gamma_regularizer": null, "beta_constraint": null, "gamma_constraint": null}, "inbound_nodes": [[["conv2d_410", 0, 0, {}]]]}, {"name": "activation_410", "class_name": "Activation", "config": {"name": "activation_410", "trainable": false, "activation": "relu"}, "inbound_nodes": [[["batch_normalization_410", 0, 0, {}]]]}, {"name": "conv2d_411", "class_name": "Conv2D", "config": {"name": "conv2d_411", "trainable": false, "filters": 192, "kernel_size": [3, 3], "strides": [1, 1], "padding": "valid", "data_format": "channels_last", "dilation_rate": [1, 1], "activation": "linear", "use_bias": false, "kernel_initializer": {"class_name": "VarianceScaling", "config": {"scale": 1.0, "mode": "fan_avg", "distribution": "uniform", "seed": null}}, "bias_initializer": {"class_name": "Zeros", "config": {}}, "kernel_regularizer": null, "bias_regularizer": null, "activity_regularizer": null, "kernel_constraint": null, "bias_constraint": null}, "inbound_nodes": [[["activation_410", 0, 0, {}]]]}, {"name": "batch_normalization_411", "class_name": "BatchNormalization", "config": {"name": "batch_normalization_411", "trainable": false, "axis": 3, "momentum": 0.99, "epsilon": 0.001, "center": true, "scale": false, "beta_initializer": {"class_name": "Zeros", "config": {}}, "gamma_initializer": {"class_name": "Ones", "config": {}}, "moving_mean_initializer": {"class_name": "Zeros", "config": {}}, "moving_variance_initializer": {"class_name": "Ones", "config": {}}, "beta_regularizer": null, "gamma_regularizer": null, "beta_constraint": null, "gamma_constraint": null}, "inbound_nodes": [[["conv2d_411", 0, 0, {}]]]}, {"name": "activation_411", "class_name": "Activation", "config": {"name": "activation_411", "trainable": false, "activation": "relu"}, "inbound_nodes": [[["batch_normalization_411", 0, 0, {}]]]}, {"name": "max_pooling2d_10", "class_name": "MaxPooling2D", "config": {"name": "max_pooling2d_10", "trainable": false, "pool_size": [3, 3], "padding": "valid", "strides": [2, 2], "data_format": "channels_last"}, "inbound_nodes": [[["activation_411", 0, 0, {}]]]}, {"name": "conv2d_415", "class_name": "Conv2D", "config": {"name": "conv2d_415", "trainable": false, "filters": 64, "kernel_size": [1, 1], "strides": [1, 1], "padding": "same", "data_format": "channels_last", "dilation_rate": [1, 1], "activation": "linear", "use_bias": false, "kernel_initializer": {"class_name": "VarianceScaling", "config": {"scale": 1.0, "mode": "fan_avg", "distribution": "uniform", "seed": null}}, "bias_initializer": {"class_name": "Zeros", "config": {}}, "kernel_regularizer": null, "bias_regularizer": null, "activity_regularizer": null, "kernel_constraint": null, "bias_constraint": null}, "inbound_nodes": [[["max_pooling2d_10", 0, 0, {}]]]}, {"name": "batch_normalization_415", "class_name": "BatchNormalization", "config": {"name": "batch_normalization_415", "trainable": false, "axis": 3, "momentum": 0.99, "epsilon": 0.001, "center": true, "scale": false, "beta_initializer": {"class_name": "Zeros", "config": {}}, "gamma_initializer": {"class_name": "Ones", "config": {}}, "moving_mean_initializer": {"class_name": "Zeros", "config": {}}, "moving_variance_initializer": {"class_name": "Ones", "config": {}}, "beta_regularizer": null, "gamma_regularizer": null, "beta_constraint": null, "gamma_constraint": null}, "inbound_nodes": [[["conv2d_415", 0, 0, {}]]]}, {"name": "activation_415", "class_name": "Activation", "config": {"name": "activation_415", "trainable": false, "activation": "relu"}, "inbound_nodes": [[["batch_normalization_415", 0, 0, {}]]]}, {"name": "conv2d_413", "class_name": "Conv2D", "config": {"name": "conv2d_413", "trainable": false, "filters": 48, "kernel_size": [1, 1], "strides": [1, 1], "padding": "same", "data_format": "channels_last", "dilation_rate": [1, 1], "activation": "linear", "use_bias": false, "kernel_initializer": {"class_name": "VarianceScaling", "config": {"scale": 1.0, "mode": "fan_avg", "distribution": "uniform", "seed": null}}, "bias_initializer": {"class_name": "Zeros", "config": {}}, "kernel_regularizer": null, "bias_regularizer": null, "activity_regularizer": null, "kernel_constraint": null, "bias_constraint": null}, "inbound_nodes": [[["max_pooling2d_10", 0, 0, {}]]]}, {"name": "conv2d_416", "class_name": "Conv2D", "config": {"name": "conv2d_416", "trainable": false, "filters": 96, "kernel_size": [3, 3], "strides": [1, 1], "padding": "same", "data_format": "channels_last", "dilation_rate": [1, 1], "activation": "linear", "use_bias": false, "kernel_initializer": {"class_name": "VarianceScaling", "config": {"scale": 1.0, "mode": "fan_avg", "distribution": "uniform", "seed": null}}, "bias_initializer": {"class_name": "Zeros", "config": {}}, "kernel_regularizer": null, "bias_regularizer": null, "activity_regularizer": null, "kernel_constraint": null, "bias_constraint": null}, "inbound_nodes": [[["activation_415", 0, 0, {}]]]}, {"name": "batch_normalization_413", "class_name": "BatchNormalization", "config": {"name": "batch_normalization_413", "trainable": false, "axis": 3, "momentum": 0.99, "epsilon": 0.001, "center": true, "scale": false, "beta_initializer": {"class_name": "Zeros", "config": {}}, "gamma_initializer": {"class_name": "Ones", "config": {}}, "moving_mean_initializer": {"class_name": "Zeros", "config": {}}, "moving_variance_initializer": {"class_name": "Ones", "config": {}}, "beta_regularizer": null, "gamma_regularizer": null, "beta_constraint": null, "gamma_constraint": null}, "inbound_nodes": [[["conv2d_413", 0, 0, {}]]]}, {"name": "batch_normalization_416", "class_name": "BatchNormalization", "config": {"name": "batch_normalization_416", "trainable": false, "axis": 3, "momentum": 0.99, "epsilon": 0.001, "center": true, "scale": false, "beta_initializer": {"class_name": "Zeros", "config": {}}, "gamma_initializer": {"class_name": "Ones", "config": {}}, "moving_mean_initializer": {"class_name": "Zeros", "config": {}}, "moving_variance_initializer": {"class_name": "Ones", "config": {}}, "beta_regularizer": null, "gamma_regularizer": null, "beta_constraint": null, "gamma_constraint": null}, "inbound_nodes": [[["conv2d_416", 0, 0, {}]]]}, {"name": "activation_413", "class_name": "Activation", "config": {"name": "activation_413", "trainable": false, "activation": "relu"}, "inbound_nodes": [[["batch_normalization_413", 0, 0, {}]]]}, {"name": "activation_416", "class_name": "Activation", "config": {"name": "activation_416", "trainable": false, "activation": "relu"}, "inbound_nodes": [[["batch_normalization_416", 0, 0, {}]]]}, {"name": "average_pooling2d_3", "class_name": "AveragePooling2D", "config": {"name": "average_pooling2d_3", "trainable": false, "pool_size": [3, 3], "padding": "same", "strides": [1, 1], "data_format": "channels_last"}, "inbound_nodes": [[["max_pooling2d_10", 0, 0, {}]]]}, {"name": "conv2d_412", "class_name": "Conv2D", "config": {"name": "conv2d_412", "trainable": false, "filters": 96, "kernel_size": [1, 1], "strides": [1, 1], "padding": "same", "data_format": "channels_last", "dilation_rate": [1, 1], "activation": "linear", "use_bias": false, "kernel_initializer": {"class_name": "VarianceScaling", "config": {"scale": 1.0, "mode": "fan_avg", "distribution": "uniform", "seed": null}}, "bias_initializer": {"class_name": "Zeros", "config": {}}, "kernel_regularizer": null, "bias_regularizer": null, "activity_regularizer": null, "kernel_constraint": null, "bias_constraint": null}, "inbound_nodes": [[["max_pooling2d_10", 0, 0, {}]]]}, {"name": "conv2d_414", "class_name": "Conv2D", "config": {"name": "conv2d_414", "trainable": false, "filters": 64, "kernel_size": [5, 5], "strides": [1, 1], "padding": "same", "data_format": "channels_last", "dilation_rate": [1, 1], "activation": "linear", "use_bias": false, "kernel_initializer": {"class_name": "VarianceScaling", "config": {"scale": 1.0, "mode": "fan_avg", "distribution": "uniform", "seed": null}}, "bias_initializer": {"class_name": "Zeros", "config": {}}, "kernel_regularizer": null, "bias_regularizer": null, "activity_regularizer": null, "kernel_constraint": null, "bias_constraint": null}, "inbound_nodes": [[["activation_413", 0, 0, {}]]]}, {"name": "conv2d_417", "class_name": "Conv2D", "config": {"name": "conv2d_417", "trainable": false, "filters": 96, "kernel_size": [3, 3], "strides": [1, 1], "padding": "same", "data_format": "channels_last", "dilation_rate": [1, 1], "activation": "linear", "use_bias": false, "kernel_initializer": {"class_name": "VarianceScaling", "config": {"scale": 1.0, "mode": "fan_avg", "distribution": "uniform", "seed": null}}, "bias_initializer": {"class_name": "Zeros", "config": {}}, "kernel_regularizer": null, "bias_regularizer": null, "activity_regularizer": null, "kernel_constraint": null, "bias_constraint": null}, "inbound_nodes": [[["activation_416", 0, 0, {}]]]}, {"name": "conv2d_418", "class_name": "Conv2D", "config": {"name": "conv2d_418", "trainable": false, "filters": 64, "kernel_size": [1, 1], "strides": [1, 1], "padding": "same", "data_format": "channels_last", "dilation_rate": [1, 1], "activation": "linear", "use_bias": false, "kernel_initializer": {"class_name": "VarianceScaling", "config": {"scale": 1.0, "mode": "fan_avg", "distribution": "uniform", "seed": null}}, "bias_initializer": {"class_name": "Zeros", "config": {}}, "kernel_regularizer": null, "bias_regularizer": null, "activity_regularizer": null, "kernel_constraint": null, "bias_constraint": null}, "inbound_nodes": [[["average_pooling2d_3", 0, 0, {}]]]}, {"name": "batch_normalization_412", "class_name": "BatchNormalization", "config": {"name": "batch_normalization_412", "trainable": false, "axis": 3, "momentum": 0.99, "epsilon": 0.001, "center": true, "scale": false, "beta_initializer": {"class_name": "Zeros", "config": {}}, "gamma_initializer": {"class_name": "Ones", "config": {}}, "moving_mean_initializer": {"class_name": "Zeros", "config": {}}, "moving_variance_initializer": {"class_name": "Ones", "config": {}}, "beta_regularizer": null, "gamma_regularizer": null, "beta_constraint": null, "gamma_constraint": null}, "inbound_nodes": [[["conv2d_412", 0, 0, {}]]]}, {"name": "batch_normalization_414", "class_name": "BatchNormalization", "config": {"name": "batch_normalization_414", "trainable": false, "axis": 3, "momentum": 0.99, "epsilon": 0.001, "center": true, "scale": false, "beta_initializer": {"class_name": "Zeros", "config": {}}, "gamma_initializer": {"class_name": "Ones", "config": {}}, "moving_mean_initializer": {"class_name": "Zeros", "config": {}}, "moving_variance_initializer": {"class_name": "Ones", "config": {}}, "beta_regularizer": null, "gamma_regularizer": null, "beta_constraint": null, "gamma_constraint": null}, "inbound_nodes": [[["conv2d_414", 0, 0, {}]]]}, {"name": "batch_normalization_417", "class_name": "BatchNormalization", "config": {"name": "batch_normalization_417", "trainable": false, "axis": 3, "momentum": 0.99, "epsilon": 0.001, "center": true, "scale": false, "beta_initializer": {"class_name": "Zeros", "config": {}}, "gamma_initializer": {"class_name": "Ones", "config": {}}, "moving_mean_initializer": {"class_name": "Zeros", "config": {}}, "moving_variance_initializer": {"class_name": "Ones", "config": {}}, "beta_regularizer": null, "gamma_regularizer": null, "beta_constraint": null, "gamma_constraint": null}, "inbound_nodes": [[["conv2d_417", 0, 0, {}]]]}, {"name": "batch_normalization_418", "class_name": "BatchNormalization", "config": {"name": "batch_normalization_418", "trainable": false, "axis": 3, "momentum": 0.99, "epsilon": 0.001, "center": true, "scale": false, "beta_initializer": {"class_name": "Zeros", "config": {}}, "gamma_initializer": {"class_name": "Ones", "config": {}}, "moving_mean_initializer": {"class_name": "Zeros", "config": {}}, "moving_variance_initializer": {"class_name": "Ones", "config": {}}, "beta_regularizer": null, "gamma_regularizer": null, "beta_constraint": null, "gamma_constraint": null}, "inbound_nodes": [[["conv2d_418", 0, 0, {}]]]}, {"name": "activation_412", "class_name": "Activation", "config": {"name": "activation_412", "trainable": false, "activation": "relu"}, "inbound_nodes": [[["batch_normalization_412", 0, 0, {}]]]}, {"name": "activation_414", "class_name": "Activation", "config": {"name": "activation_414", "trainable": false, "activation": "relu"}, "inbound_nodes": [[["batch_normalization_414", 0, 0, {}]]]}, {"name": "activation_417", "class_name": "Activation", "config": {"name": "activation_417", "trainable": false, "activation": "relu"}, "inbound_nodes": [[["batch_normalization_417", 0, 0, {}]]]}, {"name": "activation_418", "class_name": "Activation", "config": {"name": "activation_418", "trainable": false, "activation": "relu"}, "inbound_nodes": [[["batch_normalization_418", 0, 0, {}]]]}, {"name": "mixed_5b", "class_name": "Concatenate", "config": {"name": "mixed_5b", "trainable": false, "axis": 3}, "inbound_nodes": [[["activation_412", 0, 0, {}], ["activation_414", 0, 0, {}], ["activation_417", 0, 0, {}], ["activation_418", 0, 0, {}]]]}, {"name": "conv2d_422", "class_name": "Conv2D", "config": {"name": "conv2d_422", "trainable": false, "filters": 32, "kernel_size": [1, 1], "strides": [1, 1], "padding": "same", "data_format": "channels_last", "dilation_rate": [1, 1], "activation": "linear", "use_bias": false, "kernel_initializer": {"class_name": "VarianceScaling", "config": {"scale": 1.0, "mode": "fan_avg", "distribution": "uniform", "seed": null}}, "bias_initializer": {"class_name": "Zeros", "config": {}}, "kernel_regularizer": null, "bias_regularizer": null, "activity_regularizer": null, "kernel_constraint": null, "bias_constraint": null}, "inbound_nodes": [[["mixed_5b", 0, 0, {}]]]}, {"name": "batch_normalization_422", "class_name": "BatchNormalization", "config": {"name": "batch_normalization_422", "trainable": false, "axis": 3, "momentum": 0.99, "epsilon": 0.001, "center": true, "scale": false, "beta_initializer": {"class_name": "Zeros", "config": {}}, "gamma_initializer": {"class_name": "Ones", "config": {}}, "moving_mean_initializer": {"class_name": "Zeros", "config": {}}, "moving_variance_initializer": {"class_name": "Ones", "config": {}}, "beta_regularizer": null, "gamma_regularizer": null, "beta_constraint": null, "gamma_constraint": null}, "inbound_nodes": [[["conv2d_422", 0, 0, {}]]]}, {"name": "activation_422", "class_name": "Activation", "config": {"name": "activation_422", "trainable": false, "activation": "relu"}, "inbound_nodes": [[["batch_normalization_422", 0, 0, {}]]]}, {"name": "conv2d_420", "class_name": "Conv2D", "config": {"name": "conv2d_420", "trainable": false, "filters": 32, "kernel_size": [1, 1], "strides": [1, 1], "padding": "same", "data_format": "channels_last", "dilation_rate": [1, 1], "activation": "linear", "use_bias": false, "kernel_initializer": {"class_name": "VarianceScaling", "config": {"scale": 1.0, "mode": "fan_avg", "distribution": "uniform", "seed": null}}, "bias_initializer": {"class_name": "Zeros", "config": {}}, "kernel_regularizer": null, "bias_regularizer": null, "activity_regularizer": null, "kernel_constraint": null, "bias_constraint": null}, "inbound_nodes": [[["mixed_5b", 0, 0, {}]]]}, {"name": "conv2d_423", "class_name": "Conv2D", "config": {"name": "conv2d_423", "trainable": false, "filters": 48, "kernel_size": [3, 3], "strides": [1, 1], "padding": "same", "data_format": "channels_last", "dilation_rate": [1, 1], "activation": "linear", "use_bias": false, "kernel_initializer": {"class_name": "VarianceScaling", "config": {"scale": 1.0, "mode": "fan_avg", "distribution": "uniform", "seed": null}}, "bias_initializer": {"class_name": "Zeros", "config": {}}, "kernel_regularizer": null, "bias_regularizer": null, "activity_regularizer": null, "kernel_constraint": null, "bias_constraint": null}, "inbound_nodes": [[["activation_422", 0, 0, {}]]]}, {"name": "batch_normalization_420", "class_name": "BatchNormalization", "config": {"name": "batch_normalization_420", "trainable": false, "axis": 3, "momentum": 0.99, "epsilon": 0.001, "center": true, "scale": false, "beta_initializer": {"class_name": "Zeros", "config": {}}, "gamma_initializer": {"class_name": "Ones", "config": {}}, "moving_mean_initializer": {"class_name": "Zeros", "config": {}}, "moving_variance_initializer": {"class_name": "Ones", "config": {}}, "beta_regularizer": null, "gamma_regularizer": null, "beta_constraint": null, "gamma_constraint": null}, "inbound_nodes": [[["conv2d_420", 0, 0, {}]]]}, {"name": "batch_normalization_423", "class_name": "BatchNormalization", "config": {"name": "batch_normalization_423", "trainable": false, "axis": 3, "momentum": 0.99, "epsilon": 0.001, "center": true, "scale": false, "beta_initializer": {"class_name": "Zeros", "config": {}}, "gamma_initializer": {"class_name": "Ones", "config": {}}, "moving_mean_initializer": {"class_name": "Zeros", "config": {}}, "moving_variance_initializer": {"class_name": "Ones", "config": {}}, "beta_regularizer": null, "gamma_regularizer": null, "beta_constraint": null, "gamma_constraint": null}, "inbound_nodes": [[["conv2d_423", 0, 0, {}]]]}, {"name": "activation_420", "class_name": "Activation", "config": {"name": "activation_420", "trainable": false, "activation": "relu"}, "inbound_nodes": [[["batch_normalization_420", 0, 0, {}]]]}, {"name": "activation_423", "class_name": "Activation", "config": {"name": "activation_423", "trainable": false, "activation": "relu"}, "inbound_nodes": [[["batch_normalization_423", 0, 0, {}]]]}, {"name": "conv2d_419", "class_name": "Conv2D", "config": {"name": "conv2d_419", "trainable": false, "filters": 32, "kernel_size": [1, 1], "strides": [1, 1], "padding": "same", "data_format": "channels_last", "dilation_rate": [1, 1], "activation": "linear", "use_bias": false, "kernel_initializer": {"class_name": "VarianceScaling", "config": {"scale": 1.0, "mode": "fan_avg", "distribution": "uniform", "seed": null}}, "bias_initializer": {"class_name": "Zeros", "config": {}}, "kernel_regularizer": null, "bias_regularizer": null, "activity_regularizer": null, "kernel_constraint": null, "bias_constraint": null}, "inbound_nodes": [[["mixed_5b", 0, 0, {}]]]}, {"name": "conv2d_421", "class_name": "Conv2D", "config": {"name": "conv2d_421", "trainable": false, "filters": 32, "kernel_size": [3, 3], "strides": [1, 1], "padding": "same", "data_format": "channels_last", "dilation_rate": [1, 1], "activation": "linear", "use_bias": false, "kernel_initializer": {"class_name": "VarianceScaling", "config": {"scale": 1.0, "mode": "fan_avg", "distribution": "uniform", "seed": null}}, "bias_initializer": {"class_name": "Zeros", "config": {}}, "kernel_regularizer": null, "bias_regularizer": null, "activity_regularizer": null, "kernel_constraint": null, "bias_constraint": null}, "inbound_nodes": [[["activation_420", 0, 0, {}]]]}, {"name": "conv2d_424", "class_name": "Conv2D", "config": {"name": "conv2d_424", "trainable": false, "filters": 64, "kernel_size": [3, 3], "strides": [1, 1], "padding": "same", "data_format": "channels_last", "dilation_rate": [1, 1], "activation": "linear", "use_bias": false, "kernel_initializer": {"class_name": "VarianceScaling", "config": {"scale": 1.0, "mode": "fan_avg", "distribution": "uniform", "seed": null}}, "bias_initializer": {"class_name": "Zeros", "config": {}}, "kernel_regularizer": null, "bias_regularizer": null, "activity_regularizer": null, "kernel_constraint": null, "bias_constraint": null}, "inbound_nodes": [[["activation_423", 0, 0, {}]]]}, {"name": "batch_normalization_419", "class_name": "BatchNormalization", "config": {"name": "batch_normalization_419", "trainable": false, "axis": 3, "momentum": 0.99, "epsilon": 0.001, "center": true, "scale": false, "beta_initializer": {"class_name": "Zeros", "config": {}}, "gamma_initializer": {"class_name": "Ones", "config": {}}, "moving_mean_initializer": {"class_name": "Zeros", "config": {}}, "moving_variance_initializer": {"class_name": "Ones", "config": {}}, "beta_regularizer": null, "gamma_regularizer": null, "beta_constraint": null, "gamma_constraint": null}, "inbound_nodes": [[["conv2d_419", 0, 0, {}]]]}, {"name": "batch_normalization_421", "class_name": "BatchNormalization", "config": {"name": "batch_normalization_421", "trainable": false, "axis": 3, "momentum": 0.99, "epsilon": 0.001, "center": true, "scale": false, "beta_initializer": {"class_name": "Zeros", "config": {}}, "gamma_initializer": {"class_name": "Ones", "config": {}}, "moving_mean_initializer": {"class_name": "Zeros", "config": {}}, "moving_variance_initializer": {"class_name": "Ones", "config": {}}, "beta_regularizer": null, "gamma_regularizer": null, "beta_constraint": null, "gamma_constraint": null}, "inbound_nodes": [[["conv2d_421", 0, 0, {}]]]}, {"name": "batch_normalization_424", "class_name": "BatchNormalization", "config": {"name": "batch_normalization_424", "trainable": false, "axis": 3, "momentum": 0.99, "epsilon": 0.001, "center": true, "scale": false, "beta_initializer": {"class_name": "Zeros", "config": {}}, "gamma_initializer": {"class_name": "Ones", "config": {}}, "moving_mean_initializer": {"class_name": "Zeros", "config": {}}, "moving_variance_initializer": {"class_name": "Ones", "config": {}}, "beta_regularizer": null, "gamma_regularizer": null, "beta_constraint": null, "gamma_constraint": null}, "inbound_nodes": [[["conv2d_424", 0, 0, {}]]]}, {"name": "activation_419", "class_name": "Activation", "config": {"name": "activation_419", "trainable": false, "activation": "relu"}, "inbound_nodes": [[["batch_normalization_419", 0, 0, {}]]]}, {"name": "activation_421", "class_name": "Activation", "config": {"name": "activation_421", "trainable": false, "activation": "relu"}, "inbound_nodes": [[["batch_normalization_421", 0, 0, {}]]]}, {"name": "activation_424", "class_name": "Activation", "config": {"name": "activation_424", "trainable": false, "activation": "relu"}, "inbound_nodes": [[["batch_normalization_424", 0, 0, {}]]]}, {"name": "block35_1_mixed", "class_name": "Concatenate", "config": {"name": "block35_1_mixed", "trainable": false, "axis": 3}, "inbound_nodes": [[["activation_419", 0, 0, {}], ["activation_421", 0, 0, {}], ["activation_424", 0, 0, {}]]]}, {"name": "block35_1_conv", "class_name": "Conv2D", "config": {"name": "block35_1_conv", "trainable": false, "filters": 320, "kernel_size": [1, 1], "strides": [1, 1], "padding": "same", "data_format": "channels_last", "dilation_rate": [1, 1], "activation": "linear", "use_bias": true, "kernel_initializer": {"class_name": "VarianceScaling", "config": {"scale": 1.0, "mode": "fan_avg", "distribution": "uniform", "seed": null}}, "bias_initializer": {"class_name": "Zeros", "config": {}}, "kernel_regularizer": null, "bias_regularizer": null, "activity_regularizer": null, "kernel_constraint": null, "bias_constraint": null}, "inbound_nodes": [[["block35_1_mixed", 0, 0, {}]]]}, {"name": "block35_1", "class_name": "Lambda", "config": {"name": "block35_1", "trainable": false, "function": ["4wIAAAAAAAAAAgAAAAMAAABTAAAAcxQAAAB8AGQBGQB8AGQCGQB8ARQAFwBTACkDTukAAAAA6QEA\nAACpACkC2gZpbnB1dHPaBXNjYWxlcgMAAAByAwAAAPpnL1VzZXJzL3Nlby1iLy52aXJ0dWFsZW52\ncy9wbGFpZDM3L2xpYi9weXRob24zLjcvc2l0ZS1wYWNrYWdlcy9rZXJhc19hcHBsaWNhdGlvbnMv\naW5jZXB0aW9uX3Jlc25ldF92Mi5wedoIPGxhbWJkYT6oAAAA8wAAAAA=\n", null, null], "function_type": "lambda", "output_shape": [80, 80, 320], "output_shape_type": "raw", "arguments": {"scale": 0.17}}, "inbound_nodes": [[["mixed_5b", 0, 0, {}], ["block35_1_conv", 0, 0, {}]]]}, {"name": "block35_1_ac", "class_name": "Activation", "config": {"name": "block35_1_ac", "trainable": false, "activation": "relu"}, "inbound_nodes": [[["block35_1", 0, 0, {}]]]}, {"name": "conv2d_428", "class_name": "Conv2D", "config": {"name": "conv2d_428", "trainable": false, "filters": 32, "kernel_size": [1, 1], "strides": [1, 1], "padding": "same", "data_format": "channels_last", "dilation_rate": [1, 1], "activation": "linear", "use_bias": false, "kernel_initializer": {"class_name": "VarianceScaling", "config": {"scale": 1.0, "mode": "fan_avg", "distribution": "uniform", "seed": null}}, "bias_initializer": {"class_name": "Zeros", "config": {}}, "kernel_regularizer": null, "bias_regularizer": null, "activity_regularizer": null, "kernel_constraint": null, "bias_constraint": null}, "inbound_nodes": [[["block35_1_ac", 0, 0, {}]]]}, {"name": "batch_normalization_428", "class_name": "BatchNormalization", "config": {"name": "batch_normalization_428", "trainable": false, "axis": 3, "momentum": 0.99, "epsilon": 0.001, "center": true, "scale": false, "beta_initializer": {"class_name": "Zeros", "config": {}}, "gamma_initializer": {"class_name": "Ones", "config": {}}, "moving_mean_initializer": {"class_name": "Zeros", "config": {}}, "moving_variance_initializer": {"class_name": "Ones", "config": {}}, "beta_regularizer": null, "gamma_regularizer": null, "beta_constraint": null, "gamma_constraint": null}, "inbound_nodes": [[["conv2d_428", 0, 0, {}]]]}, {"name": "activation_428", "class_name": "Activation", "config": {"name": "activation_428", "trainable": false, "activation": "relu"}, "inbound_nodes": [[["batch_normalization_428", 0, 0, {}]]]}, {"name": "conv2d_426", "class_name": "Conv2D", "config": {"name": "conv2d_426", "trainable": false, "filters": 32, "kernel_size": [1, 1], "strides": [1, 1], "padding": "same", "data_format": "channels_last", "dilation_rate": [1, 1], "activation": "linear", "use_bias": false, "kernel_initializer": {"class_name": "VarianceScaling", "config": {"scale": 1.0, "mode": "fan_avg", "distribution": "uniform", "seed": null}}, "bias_initializer": {"class_name": "Zeros", "config": {}}, "kernel_regularizer": null, "bias_regularizer": null, "activity_regularizer": null, "kernel_constraint": null, "bias_constraint": null}, "inbound_nodes": [[["block35_1_ac", 0, 0, {}]]]}, {"name": "conv2d_429", "class_name": "Conv2D", "config": {"name": "conv2d_429", "trainable": false, "filters": 48, "kernel_size": [3, 3], "strides": [1, 1], "padding": "same", "data_format": "channels_last", "dilation_rate": [1, 1], "activation": "linear", "use_bias": false, "kernel_initializer": {"class_name": "VarianceScaling", "config": {"scale": 1.0, "mode": "fan_avg", "distribution": "uniform", "seed": null}}, "bias_initializer": {"class_name": "Zeros", "config": {}}, "kernel_regularizer": null, "bias_regularizer": null, "activity_regularizer": null, "kernel_constraint": null, "bias_constraint": null}, "inbound_nodes": [[["activation_428", 0, 0, {}]]]}, {"name": "batch_normalization_426", "class_name": "BatchNormalization", "config": {"name": "batch_normalization_426", "trainable": false, "axis": 3, "momentum": 0.99, "epsilon": 0.001, "center": true, "scale": false, "beta_initializer": {"class_name": "Zeros", "config": {}}, "gamma_initializer": {"class_name": "Ones", "config": {}}, "moving_mean_initializer": {"class_name": "Zeros", "config": {}}, "moving_variance_initializer": {"class_name": "Ones", "config": {}}, "beta_regularizer": null, "gamma_regularizer": null, "beta_constraint": null, "gamma_constraint": null}, "inbound_nodes": [[["conv2d_426", 0, 0, {}]]]}, {"name": "batch_normalization_429", "class_name": "BatchNormalization", "config": {"name": "batch_normalization_429", "trainable": false, "axis": 3, "momentum": 0.99, "epsilon": 0.001, "center": true, "scale": false, "beta_initializer": {"class_name": "Zeros", "config": {}}, "gamma_initializer": {"class_name": "Ones", "config": {}}, "moving_mean_initializer": {"class_name": "Zeros", "config": {}}, "moving_variance_initializer": {"class_name": "Ones", "config": {}}, "beta_regularizer": null, "gamma_regularizer": null, "beta_constraint": null, "gamma_constraint": null}, "inbound_nodes": [[["conv2d_429", 0, 0, {}]]]}, {"name": "activation_426", "class_name": "Activation", "config": {"name": "activation_426", "trainable": false, "activation": "relu"}, "inbound_nodes": [[["batch_normalization_426", 0, 0, {}]]]}, {"name": "activation_429", "class_name": "Activation", "config": {"name": "activation_429", "trainable": false, "activation": "relu"}, "inbound_nodes": [[["batch_normalization_429", 0, 0, {}]]]}, {"name": "conv2d_425", "class_name": "Conv2D", "config": {"name": "conv2d_425", "trainable": false, "filters": 32, "kernel_size": [1, 1], "strides": [1, 1], "padding": "same", "data_format": "channels_last", "dilation_rate": [1, 1], "activation": "linear", "use_bias": false, "kernel_initializer": {"class_name": "VarianceScaling", "config": {"scale": 1.0, "mode": "fan_avg", "distribution": "uniform", "seed": null}}, "bias_initializer": {"class_name": "Zeros", "config": {}}, "kernel_regularizer": null, "bias_regularizer": null, "activity_regularizer": null, "kernel_constraint": null, "bias_constraint": null}, "inbound_nodes": [[["block35_1_ac", 0, 0, {}]]]}, {"name": "conv2d_427", "class_name": "Conv2D", "config": {"name": "conv2d_427", "trainable": false, "filters": 32, "kernel_size": [3, 3], "strides": [1, 1], "padding": "same", "data_format": "channels_last", "dilation_rate": [1, 1], "activation": "linear", "use_bias": false, "kernel_initializer": {"class_name": "VarianceScaling", "config": {"scale": 1.0, "mode": "fan_avg", "distribution": "uniform", "seed": null}}, "bias_initializer": {"class_name": "Zeros", "config": {}}, "kernel_regularizer": null, "bias_regularizer": null, "activity_regularizer": null, "kernel_constraint": null, "bias_constraint": null}, "inbound_nodes": [[["activation_426", 0, 0, {}]]]}, {"name": "conv2d_430", "class_name": "Conv2D", "config": {"name": "conv2d_430", "trainable": false, "filters": 64, "kernel_size": [3, 3], "strides": [1, 1], "padding": "same", "data_format": "channels_last", "dilation_rate": [1, 1], "activation": "linear", "use_bias": false, "kernel_initializer": {"class_name": "VarianceScaling", "config": {"scale": 1.0, "mode": "fan_avg", "distribution": "uniform", "seed": null}}, "bias_initializer": {"class_name": "Zeros", "config": {}}, "kernel_regularizer": null, "bias_regularizer": null, "activity_regularizer": null, "kernel_constraint": null, "bias_constraint": null}, "inbound_nodes": [[["activation_429", 0, 0, {}]]]}, {"name": "batch_normalization_425", "class_name": "BatchNormalization", "config": {"name": "batch_normalization_425", "trainable": false, "axis": 3, "momentum": 0.99, "epsilon": 0.001, "center": true, "scale": false, "beta_initializer": {"class_name": "Zeros", "config": {}}, "gamma_initializer": {"class_name": "Ones", "config": {}}, "moving_mean_initializer": {"class_name": "Zeros", "config": {}}, "moving_variance_initializer": {"class_name": "Ones", "config": {}}, "beta_regularizer": null, "gamma_regularizer": null, "beta_constraint": null, "gamma_constraint": null}, "inbound_nodes": [[["conv2d_425", 0, 0, {}]]]}, {"name": "batch_normalization_427", "class_name": "BatchNormalization", "config": {"name": "batch_normalization_427", "trainable": false, "axis": 3, "momentum": 0.99, "epsilon": 0.001, "center": true, "scale": false, "beta_initializer": {"class_name": "Zeros", "config": {}}, "gamma_initializer": {"class_name": "Ones", "config": {}}, "moving_mean_initializer": {"class_name": "Zeros", "config": {}}, "moving_variance_initializer": {"class_name": "Ones", "config": {}}, "beta_regularizer": null, "gamma_regularizer": null, "beta_constraint": null, "gamma_constraint": null}, "inbound_nodes": [[["conv2d_427", 0, 0, {}]]]}, {"name": "batch_normalization_430", "class_name": "BatchNormalization", "config": {"name": "batch_normalization_430", "trainable": false, "axis": 3, "momentum": 0.99, "epsilon": 0.001, "center": true, "scale": false, "beta_initializer": {"class_name": "Zeros", "config": {}}, "gamma_initializer": {"class_name": "Ones", "config": {}}, "moving_mean_initializer": {"class_name": "Zeros", "config": {}}, "moving_variance_initializer": {"class_name": "Ones", "config": {}}, "beta_regularizer": null, "gamma_regularizer": null, "beta_constraint": null, "gamma_constraint": null}, "inbound_nodes": [[["conv2d_430", 0, 0, {}]]]}, {"name": "activation_425", "class_name": "Activation", "config": {"name": "activation_425", "trainable": false, "activation": "relu"}, "inbound_nodes": [[["batch_normalization_425", 0, 0, {}]]]}, {"name": "activation_427", "class_name": "Activation", "config": {"name": "activation_427", "trainable": false, "activation": "relu"}, "inbound_nodes": [[["batch_normalization_427", 0, 0, {}]]]}, {"name": "activation_430", "class_name": "Activation", "config": {"name": "activation_430", "trainable": false, "activation": "relu"}, "inbound_nodes": [[["batch_normalization_430", 0, 0, {}]]]}, {"name": "block35_2_mixed", "class_name": "Concatenate", "config": {"name": "block35_2_mixed", "trainable": false, "axis": 3}, "inbound_nodes": [[["activation_425", 0, 0, {}], ["activation_427", 0, 0, {}], ["activation_430", 0, 0, {}]]]}, {"name": "block35_2_conv", "class_name": "Conv2D", "config": {"name": "block35_2_conv", "trainable": false, "filters": 320, "kernel_size": [1, 1], "strides": [1, 1], "padding": "same", "data_format": "channels_last", "dilation_rate": [1, 1], "activation": "linear", "use_bias": true, "kernel_initializer": {"class_name": "VarianceScaling", "config": {"scale": 1.0, "mode": "fan_avg", "distribution": "uniform", "seed": null}}, "bias_initializer": {"class_name": "Zeros", "config": {}}, "kernel_regularizer": null, "bias_regularizer": null, "activity_regularizer": null, "kernel_constraint": null, "bias_constraint": null}, "inbound_nodes": [[["block35_2_mixed", 0, 0, {}]]]}, {"name": "block35_2", "class_name": "Lambda", "config": {"name": "block35_2", "trainable": false, "function": ["4wIAAAAAAAAAAgAAAAMAAABTAAAAcxQAAAB8AGQBGQB8AGQCGQB8ARQAFwBTACkDTukAAAAA6QEA\nAACpACkC2gZpbnB1dHPaBXNjYWxlcgMAAAByAwAAAPpnL1VzZXJzL3Nlby1iLy52aXJ0dWFsZW52\ncy9wbGFpZDM3L2xpYi9weXRob24zLjcvc2l0ZS1wYWNrYWdlcy9rZXJhc19hcHBsaWNhdGlvbnMv\naW5jZXB0aW9uX3Jlc25ldF92Mi5wedoIPGxhbWJkYT6oAAAA8wAAAAA=\n", null, null], "function_type": "lambda", "output_shape": [80, 80, 320], "output_shape_type": "raw", "arguments": {"scale": 0.17}}, "inbound_nodes": [[["block35_1_ac", 0, 0, {}], ["block35_2_conv", 0, 0, {}]]]}, {"name": "block35_2_ac", "class_name": "Activation", "config": {"name": "block35_2_ac", "trainable": false, "activation": "relu"}, "inbound_nodes": [[["block35_2", 0, 0, {}]]]}, {"name": "conv2d_434", "class_name": "Conv2D", "config": {"name": "conv2d_434", "trainable": false, "filters": 32, "kernel_size": [1, 1], "strides": [1, 1], "padding": "same", "data_format": "channels_last", "dilation_rate": [1, 1], "activation": "linear", "use_bias": false, "kernel_initializer": {"class_name": "VarianceScaling", "config": {"scale": 1.0, "mode": "fan_avg", "distribution": "uniform", "seed": null}}, "bias_initializer": {"class_name": "Zeros", "config": {}}, "kernel_regularizer": null, "bias_regularizer": null, "activity_regularizer": null, "kernel_constraint": null, "bias_constraint": null}, "inbound_nodes": [[["block35_2_ac", 0, 0, {}]]]}, {"name": "batch_normalization_434", "class_name": "BatchNormalization", "config": {"name": "batch_normalization_434", "trainable": false, "axis": 3, "momentum": 0.99, "epsilon": 0.001, "center": true, "scale": false, "beta_initializer": {"class_name": "Zeros", "config": {}}, "gamma_initializer": {"class_name": "Ones", "config": {}}, "moving_mean_initializer": {"class_name": "Zeros", "config": {}}, "moving_variance_initializer": {"class_name": "Ones", "config": {}}, "beta_regularizer": null, "gamma_regularizer": null, "beta_constraint": null, "gamma_constraint": null}, "inbound_nodes": [[["conv2d_434", 0, 0, {}]]]}, {"name": "activation_434", "class_name": "Activation", "config": {"name": "activation_434", "trainable": false, "activation": "relu"}, "inbound_nodes": [[["batch_normalization_434", 0, 0, {}]]]}, {"name": "conv2d_432", "class_name": "Conv2D", "config": {"name": "conv2d_432", "trainable": false, "filters": 32, "kernel_size": [1, 1], "strides": [1, 1], "padding": "same", "data_format": "channels_last", "dilation_rate": [1, 1], "activation": "linear", "use_bias": false, "kernel_initializer": {"class_name": "VarianceScaling", "config": {"scale": 1.0, "mode": "fan_avg", "distribution": "uniform", "seed": null}}, "bias_initializer": {"class_name": "Zeros", "config": {}}, "kernel_regularizer": null, "bias_regularizer": null, "activity_regularizer": null, "kernel_constraint": null, "bias_constraint": null}, "inbound_nodes": [[["block35_2_ac", 0, 0, {}]]]}, {"name": "conv2d_435", "class_name": "Conv2D", "config": {"name": "conv2d_435", "trainable": false, "filters": 48, "kernel_size": [3, 3], "strides": [1, 1], "padding": "same", "data_format": "channels_last", "dilation_rate": [1, 1], "activation": "linear", "use_bias": false, "kernel_initializer": {"class_name": "VarianceScaling", "config": {"scale": 1.0, "mode": "fan_avg", "distribution": "uniform", "seed": null}}, "bias_initializer": {"class_name": "Zeros", "config": {}}, "kernel_regularizer": null, "bias_regularizer": null, "activity_regularizer": null, "kernel_constraint": null, "bias_constraint": null}, "inbound_nodes": [[["activation_434", 0, 0, {}]]]}, {"name": "batch_normalization_432", "class_name": "BatchNormalization", "config": {"name": "batch_normalization_432", "trainable": false, "axis": 3, "momentum": 0.99, "epsilon": 0.001, "center": true, "scale": false, "beta_initializer": {"class_name": "Zeros", "config": {}}, "gamma_initializer": {"class_name": "Ones", "config": {}}, "moving_mean_initializer": {"class_name": "Zeros", "config": {}}, "moving_variance_initializer": {"class_name": "Ones", "config": {}}, "beta_regularizer": null, "gamma_regularizer": null, "beta_constraint": null, "gamma_constraint": null}, "inbound_nodes": [[["conv2d_432", 0, 0, {}]]]}, {"name": "batch_normalization_435", "class_name": "BatchNormalization", "config": {"name": "batch_normalization_435", "trainable": false, "axis": 3, "momentum": 0.99, "epsilon": 0.001, "center": true, "scale": false, "beta_initializer": {"class_name": "Zeros", "config": {}}, "gamma_initializer": {"class_name": "Ones", "config": {}}, "moving_mean_initializer": {"class_name": "Zeros", "config": {}}, "moving_variance_initializer": {"class_name": "Ones", "config": {}}, "beta_regularizer": null, "gamma_regularizer": null, "beta_constraint": null, "gamma_constraint": null}, "inbound_nodes": [[["conv2d_435", 0, 0, {}]]]}, {"name": "activation_432", "class_name": "Activation", "config": {"name": "activation_432", "trainable": false, "activation": "relu"}, "inbound_nodes": [[["batch_normalization_432", 0, 0, {}]]]}, {"name": "activation_435", "class_name": "Activation", "config": {"name": "activation_435", "trainable": false, "activation": "relu"}, "inbound_nodes": [[["batch_normalization_435", 0, 0, {}]]]}, {"name": "conv2d_431", "class_name": "Conv2D", "config": {"name": "conv2d_431", "trainable": false, "filters": 32, "kernel_size": [1, 1], "strides": [1, 1], "padding": "same", "data_format": "channels_last", "dilation_rate": [1, 1], "activation": "linear", "use_bias": false, "kernel_initializer": {"class_name": "VarianceScaling", "config": {"scale": 1.0, "mode": "fan_avg", "distribution": "uniform", "seed": null}}, "bias_initializer": {"class_name": "Zeros", "config": {}}, "kernel_regularizer": null, "bias_regularizer": null, "activity_regularizer": null, "kernel_constraint": null, "bias_constraint": null}, "inbound_nodes": [[["block35_2_ac", 0, 0, {}]]]}, {"name": "conv2d_433", "class_name": "Conv2D", "config": {"name": "conv2d_433", "trainable": false, "filters": 32, "kernel_size": [3, 3], "strides": [1, 1], "padding": "same", "data_format": "channels_last", "dilation_rate": [1, 1], "activation": "linear", "use_bias": false, "kernel_initializer": {"class_name": "VarianceScaling", "config": {"scale": 1.0, "mode": "fan_avg", "distribution": "uniform", "seed": null}}, "bias_initializer": {"class_name": "Zeros", "config": {}}, "kernel_regularizer": null, "bias_regularizer": null, "activity_regularizer": null, "kernel_constraint": null, "bias_constraint": null}, "inbound_nodes": [[["activation_432", 0, 0, {}]]]}, {"name": "conv2d_436", "class_name": "Conv2D", "config": {"name": "conv2d_436", "trainable": false, "filters": 64, "kernel_size": [3, 3], "strides": [1, 1], "padding": "same", "data_format": "channels_last", "dilation_rate": [1, 1], "activation": "linear", "use_bias": false, "kernel_initializer": {"class_name": "VarianceScaling", "config": {"scale": 1.0, "mode": "fan_avg", "distribution": "uniform", "seed": null}}, "bias_initializer": {"class_name": "Zeros", "config": {}}, "kernel_regularizer": null, "bias_regularizer": null, "activity_regularizer": null, "kernel_constraint": null, "bias_constraint": null}, "inbound_nodes": [[["activation_435", 0, 0, {}]]]}, {"name": "batch_normalization_431", "class_name": "BatchNormalization", "config": {"name": "batch_normalization_431", "trainable": false, "axis": 3, "momentum": 0.99, "epsilon": 0.001, "center": true, "scale": false, "beta_initializer": {"class_name": "Zeros", "config": {}}, "gamma_initializer": {"class_name": "Ones", "config": {}}, "moving_mean_initializer": {"class_name": "Zeros", "config": {}}, "moving_variance_initializer": {"class_name": "Ones", "config": {}}, "beta_regularizer": null, "gamma_regularizer": null, "beta_constraint": null, "gamma_constraint": null}, "inbound_nodes": [[["conv2d_431", 0, 0, {}]]]}, {"name": "batch_normalization_433", "class_name": "BatchNormalization", "config": {"name": "batch_normalization_433", "trainable": false, "axis": 3, "momentum": 0.99, "epsilon": 0.001, "center": true, "scale": false, "beta_initializer": {"class_name": "Zeros", "config": {}}, "gamma_initializer": {"class_name": "Ones", "config": {}}, "moving_mean_initializer": {"class_name": "Zeros", "config": {}}, "moving_variance_initializer": {"class_name": "Ones", "config": {}}, "beta_regularizer": null, "gamma_regularizer": null, "beta_constraint": null, "gamma_constraint": null}, "inbound_nodes": [[["conv2d_433", 0, 0, {}]]]}, {"name": "batch_normalization_436", "class_name": "BatchNormalization", "config": {"name": "batch_normalization_436", "trainable": false, "axis": 3, "momentum": 0.99, "epsilon": 0.001, "center": true, "scale": false, "beta_initializer": {"class_name": "Zeros", "config": {}}, "gamma_initializer": {"class_name": "Ones", "config": {}}, "moving_mean_initializer": {"class_name": "Zeros", "config": {}}, "moving_variance_initializer": {"class_name": "Ones", "config": {}}, "beta_regularizer": null, "gamma_regularizer": null, "beta_constraint": null, "gamma_constraint": null}, "inbound_nodes": [[["conv2d_436", 0, 0, {}]]]}, {"name": "activation_431", "class_name": "Activation", "config": {"name": "activation_431", "trainable": false, "activation": "relu"}, "inbound_nodes": [[["batch_normalization_431", 0, 0, {}]]]}, {"name": "activation_433", "class_name": "Activation", "config": {"name": "activation_433", "trainable": false, "activation": "relu"}, "inbound_nodes": [[["batch_normalization_433", 0, 0, {}]]]}, {"name": "activation_436", "class_name": "Activation", "config": {"name": "activation_436", "trainable": false, "activation": "relu"}, "inbound_nodes": [[["batch_normalization_436", 0, 0, {}]]]}, {"name": "block35_3_mixed", "class_name": "Concatenate", "config": {"name": "block35_3_mixed", "trainable": false, "axis": 3}, "inbound_nodes": [[["activation_431", 0, 0, {}], ["activation_433", 0, 0, {}], ["activation_436", 0, 0, {}]]]}, {"name": "block35_3_conv", "class_name": "Conv2D", "config": {"name": "block35_3_conv", "trainable": false, "filters": 320, "kernel_size": [1, 1], "strides": [1, 1], "padding": "same", "data_format": "channels_last", "dilation_rate": [1, 1], "activation": "linear", "use_bias": true, "kernel_initializer": {"class_name": "VarianceScaling", "config": {"scale": 1.0, "mode": "fan_avg", "distribution": "uniform", "seed": null}}, "bias_initializer": {"class_name": "Zeros", "config": {}}, "kernel_regularizer": null, "bias_regularizer": null, "activity_regularizer": null, "kernel_constraint": null, "bias_constraint": null}, "inbound_nodes": [[["block35_3_mixed", 0, 0, {}]]]}, {"name": "block35_3", "class_name": "Lambda", "config": {"name": "block35_3", "trainable": false, "function": ["4wIAAAAAAAAAAgAAAAMAAABTAAAAcxQAAAB8AGQBGQB8AGQCGQB8ARQAFwBTACkDTukAAAAA6QEA\nAACpACkC2gZpbnB1dHPaBXNjYWxlcgMAAAByAwAAAPpnL1VzZXJzL3Nlby1iLy52aXJ0dWFsZW52\ncy9wbGFpZDM3L2xpYi9weXRob24zLjcvc2l0ZS1wYWNrYWdlcy9rZXJhc19hcHBsaWNhdGlvbnMv\naW5jZXB0aW9uX3Jlc25ldF92Mi5wedoIPGxhbWJkYT6oAAAA8wAAAAA=\n", null, null], "function_type": "lambda", "output_shape": [80, 80, 320], "output_shape_type": "raw", "arguments": {"scale": 0.17}}, "inbound_nodes": [[["block35_2_ac", 0, 0, {}], ["block35_3_conv", 0, 0, {}]]]}, {"name": "block35_3_ac", "class_name": "Activation", "config": {"name": "block35_3_ac", "trainable": false, "activation": "relu"}, "inbound_nodes": [[["block35_3", 0, 0, {}]]]}, {"name": "conv2d_440", "class_name": "Conv2D", "config": {"name": "conv2d_440", "trainable": false, "filters": 32, "kernel_size": [1, 1], "strides": [1, 1], "padding": "same", "data_format": "channels_last", "dilation_rate": [1, 1], "activation": "linear", "use_bias": false, "kernel_initializer": {"class_name": "VarianceScaling", "config": {"scale": 1.0, "mode": "fan_avg", "distribution": "uniform", "seed": null}}, "bias_initializer": {"class_name": "Zeros", "config": {}}, "kernel_regularizer": null, "bias_regularizer": null, "activity_regularizer": null, "kernel_constraint": null, "bias_constraint": null}, "inbound_nodes": [[["block35_3_ac", 0, 0, {}]]]}, {"name": "batch_normalization_440", "class_name": "BatchNormalization", "config": {"name": "batch_normalization_440", "trainable": false, "axis": 3, "momentum": 0.99, "epsilon": 0.001, "center": true, "scale": false, "beta_initializer": {"class_name": "Zeros", "config": {}}, "gamma_initializer": {"class_name": "Ones", "config": {}}, "moving_mean_initializer": {"class_name": "Zeros", "config": {}}, "moving_variance_initializer": {"class_name": "Ones", "config": {}}, "beta_regularizer": null, "gamma_regularizer": null, "beta_constraint": null, "gamma_constraint": null}, "inbound_nodes": [[["conv2d_440", 0, 0, {}]]]}, {"name": "activation_440", "class_name": "Activation", "config": {"name": "activation_440", "trainable": false, "activation": "relu"}, "inbound_nodes": [[["batch_normalization_440", 0, 0, {}]]]}, {"name": "conv2d_438", "class_name": "Conv2D", "config": {"name": "conv2d_438", "trainable": false, "filters": 32, "kernel_size": [1, 1], "strides": [1, 1], "padding": "same", "data_format": "channels_last", "dilation_rate": [1, 1], "activation": "linear", "use_bias": false, "kernel_initializer": {"class_name": "VarianceScaling", "config": {"scale": 1.0, "mode": "fan_avg", "distribution": "uniform", "seed": null}}, "bias_initializer": {"class_name": "Zeros", "config": {}}, "kernel_regularizer": null, "bias_regularizer": null, "activity_regularizer": null, "kernel_constraint": null, "bias_constraint": null}, "inbound_nodes": [[["block35_3_ac", 0, 0, {}]]]}, {"name": "conv2d_441", "class_name": "Conv2D", "config": {"name": "conv2d_441", "trainable": false, "filters": 48, "kernel_size": [3, 3], "strides": [1, 1], "padding": "same", "data_format": "channels_last", "dilation_rate": [1, 1], "activation": "linear", "use_bias": false, "kernel_initializer": {"class_name": "VarianceScaling", "config": {"scale": 1.0, "mode": "fan_avg", "distribution": "uniform", "seed": null}}, "bias_initializer": {"class_name": "Zeros", "config": {}}, "kernel_regularizer": null, "bias_regularizer": null, "activity_regularizer": null, "kernel_constraint": null, "bias_constraint": null}, "inbound_nodes": [[["activation_440", 0, 0, {}]]]}, {"name": "batch_normalization_438", "class_name": "BatchNormalization", "config": {"name": "batch_normalization_438", "trainable": false, "axis": 3, "momentum": 0.99, "epsilon": 0.001, "center": true, "scale": false, "beta_initializer": {"class_name": "Zeros", "config": {}}, "gamma_initializer": {"class_name": "Ones", "config": {}}, "moving_mean_initializer": {"class_name": "Zeros", "config": {}}, "moving_variance_initializer": {"class_name": "Ones", "config": {}}, "beta_regularizer": null, "gamma_regularizer": null, "beta_constraint": null, "gamma_constraint": null}, "inbound_nodes": [[["conv2d_438", 0, 0, {}]]]}, {"name": "batch_normalization_441", "class_name": "BatchNormalization", "config": {"name": "batch_normalization_441", "trainable": false, "axis": 3, "momentum": 0.99, "epsilon": 0.001, "center": true, "scale": false, "beta_initializer": {"class_name": "Zeros", "config": {}}, "gamma_initializer": {"class_name": "Ones", "config": {}}, "moving_mean_initializer": {"class_name": "Zeros", "config": {}}, "moving_variance_initializer": {"class_name": "Ones", "config": {}}, "beta_regularizer": null, "gamma_regularizer": null, "beta_constraint": null, "gamma_constraint": null}, "inbound_nodes": [[["conv2d_441", 0, 0, {}]]]}, {"name": "activation_438", "class_name": "Activation", "config": {"name": "activation_438", "trainable": false, "activation": "relu"}, "inbound_nodes": [[["batch_normalization_438", 0, 0, {}]]]}, {"name": "activation_441", "class_name": "Activation", "config": {"name": "activation_441", "trainable": false, "activation": "relu"}, "inbound_nodes": [[["batch_normalization_441", 0, 0, {}]]]}, {"name": "conv2d_437", "class_name": "Conv2D", "config": {"name": "conv2d_437", "trainable": false, "filters": 32, "kernel_size": [1, 1], "strides": [1, 1], "padding": "same", "data_format": "channels_last", "dilation_rate": [1, 1], "activation": "linear", "use_bias": false, "kernel_initializer": {"class_name": "VarianceScaling", "config": {"scale": 1.0, "mode": "fan_avg", "distribution": "uniform", "seed": null}}, "bias_initializer": {"class_name": "Zeros", "config": {}}, "kernel_regularizer": null, "bias_regularizer": null, "activity_regularizer": null, "kernel_constraint": null, "bias_constraint": null}, "inbound_nodes": [[["block35_3_ac", 0, 0, {}]]]}, {"name": "conv2d_439", "class_name": "Conv2D", "config": {"name": "conv2d_439", "trainable": false, "filters": 32, "kernel_size": [3, 3], "strides": [1, 1], "padding": "same", "data_format": "channels_last", "dilation_rate": [1, 1], "activation": "linear", "use_bias": false, "kernel_initializer": {"class_name": "VarianceScaling", "config": {"scale": 1.0, "mode": "fan_avg", "distribution": "uniform", "seed": null}}, "bias_initializer": {"class_name": "Zeros", "config": {}}, "kernel_regularizer": null, "bias_regularizer": null, "activity_regularizer": null, "kernel_constraint": null, "bias_constraint": null}, "inbound_nodes": [[["activation_438", 0, 0, {}]]]}, {"name": "conv2d_442", "class_name": "Conv2D", "config": {"name": "conv2d_442", "trainable": false, "filters": 64, "kernel_size": [3, 3], "strides": [1, 1], "padding": "same", "data_format": "channels_last", "dilation_rate": [1, 1], "activation": "linear", "use_bias": false, "kernel_initializer": {"class_name": "VarianceScaling", "config": {"scale": 1.0, "mode": "fan_avg", "distribution": "uniform", "seed": null}}, "bias_initializer": {"class_name": "Zeros", "config": {}}, "kernel_regularizer": null, "bias_regularizer": null, "activity_regularizer": null, "kernel_constraint": null, "bias_constraint": null}, "inbound_nodes": [[["activation_441", 0, 0, {}]]]}, {"name": "batch_normalization_437", "class_name": "BatchNormalization", "config": {"name": "batch_normalization_437", "trainable": false, "axis": 3, "momentum": 0.99, "epsilon": 0.001, "center": true, "scale": false, "beta_initializer": {"class_name": "Zeros", "config": {}}, "gamma_initializer": {"class_name": "Ones", "config": {}}, "moving_mean_initializer": {"class_name": "Zeros", "config": {}}, "moving_variance_initializer": {"class_name": "Ones", "config": {}}, "beta_regularizer": null, "gamma_regularizer": null, "beta_constraint": null, "gamma_constraint": null}, "inbound_nodes": [[["conv2d_437", 0, 0, {}]]]}, {"name": "batch_normalization_439", "class_name": "BatchNormalization", "config": {"name": "batch_normalization_439", "trainable": false, "axis": 3, "momentum": 0.99, "epsilon": 0.001, "center": true, "scale": false, "beta_initializer": {"class_name": "Zeros", "config": {}}, "gamma_initializer": {"class_name": "Ones", "config": {}}, "moving_mean_initializer": {"class_name": "Zeros", "config": {}}, "moving_variance_initializer": {"class_name": "Ones", "config": {}}, "beta_regularizer": null, "gamma_regularizer": null, "beta_constraint": null, "gamma_constraint": null}, "inbound_nodes": [[["conv2d_439", 0, 0, {}]]]}, {"name": "batch_normalization_442", "class_name": "BatchNormalization", "config": {"name": "batch_normalization_442", "trainable": false, "axis": 3, "momentum": 0.99, "epsilon": 0.001, "center": true, "scale": false, "beta_initializer": {"class_name": "Zeros", "config": {}}, "gamma_initializer": {"class_name": "Ones", "config": {}}, "moving_mean_initializer": {"class_name": "Zeros", "config": {}}, "moving_variance_initializer": {"class_name": "Ones", "config": {}}, "beta_regularizer": null, "gamma_regularizer": null, "beta_constraint": null, "gamma_constraint": null}, "inbound_nodes": [[["conv2d_442", 0, 0, {}]]]}, {"name": "activation_437", "class_name": "Activation", "config": {"name": "activation_437", "trainable": false, "activation": "relu"}, "inbound_nodes": [[["batch_normalization_437", 0, 0, {}]]]}, {"name": "activation_439", "class_name": "Activation", "config": {"name": "activation_439", "trainable": false, "activation": "relu"}, "inbound_nodes": [[["batch_normalization_439", 0, 0, {}]]]}, {"name": "activation_442", "class_name": "Activation", "config": {"name": "activation_442", "trainable": false, "activation": "relu"}, "inbound_nodes": [[["batch_normalization_442", 0, 0, {}]]]}, {"name": "block35_4_mixed", "class_name": "Concatenate", "config": {"name": "block35_4_mixed", "trainable": false, "axis": 3}, "inbound_nodes": [[["activation_437", 0, 0, {}], ["activation_439", 0, 0, {}], ["activation_442", 0, 0, {}]]]}, {"name": "block35_4_conv", "class_name": "Conv2D", "config": {"name": "block35_4_conv", "trainable": false, "filters": 320, "kernel_size": [1, 1], "strides": [1, 1], "padding": "same", "data_format": "channels_last", "dilation_rate": [1, 1], "activation": "linear", "use_bias": true, "kernel_initializer": {"class_name": "VarianceScaling", "config": {"scale": 1.0, "mode": "fan_avg", "distribution": "uniform", "seed": null}}, "bias_initializer": {"class_name": "Zeros", "config": {}}, "kernel_regularizer": null, "bias_regularizer": null, "activity_regularizer": null, "kernel_constraint": null, "bias_constraint": null}, "inbound_nodes": [[["block35_4_mixed", 0, 0, {}]]]}, {"name": "block35_4", "class_name": "Lambda", "config": {"name": "block35_4", "trainable": false, "function": ["4wIAAAAAAAAAAgAAAAMAAABTAAAAcxQAAAB8AGQBGQB8AGQCGQB8ARQAFwBTACkDTukAAAAA6QEA\nAACpACkC2gZpbnB1dHPaBXNjYWxlcgMAAAByAwAAAPpnL1VzZXJzL3Nlby1iLy52aXJ0dWFsZW52\ncy9wbGFpZDM3L2xpYi9weXRob24zLjcvc2l0ZS1wYWNrYWdlcy9rZXJhc19hcHBsaWNhdGlvbnMv\naW5jZXB0aW9uX3Jlc25ldF92Mi5wedoIPGxhbWJkYT6oAAAA8wAAAAA=\n", null, null], "function_type": "lambda", "output_shape": [80, 80, 320], "output_shape_type": "raw", "arguments": {"scale": 0.17}}, "inbound_nodes": [[["block35_3_ac", 0, 0, {}], ["block35_4_conv", 0, 0, {}]]]}, {"name": "block35_4_ac", "class_name": "Activation", "config": {"name": "block35_4_ac", "trainable": false, "activation": "relu"}, "inbound_nodes": [[["block35_4", 0, 0, {}]]]}, {"name": "conv2d_446", "class_name": "Conv2D", "config": {"name": "conv2d_446", "trainable": false, "filters": 32, "kernel_size": [1, 1], "strides": [1, 1], "padding": "same", "data_format": "channels_last", "dilation_rate": [1, 1], "activation": "linear", "use_bias": false, "kernel_initializer": {"class_name": "VarianceScaling", "config": {"scale": 1.0, "mode": "fan_avg", "distribution": "uniform", "seed": null}}, "bias_initializer": {"class_name": "Zeros", "config": {}}, "kernel_regularizer": null, "bias_regularizer": null, "activity_regularizer": null, "kernel_constraint": null, "bias_constraint": null}, "inbound_nodes": [[["block35_4_ac", 0, 0, {}]]]}, {"name": "batch_normalization_446", "class_name": "BatchNormalization", "config": {"name": "batch_normalization_446", "trainable": false, "axis": 3, "momentum": 0.99, "epsilon": 0.001, "center": true, "scale": false, "beta_initializer": {"class_name": "Zeros", "config": {}}, "gamma_initializer": {"class_name": "Ones", "config": {}}, "moving_mean_initializer": {"class_name": "Zeros", "config": {}}, "moving_variance_initializer": {"class_name": "Ones", "config": {}}, "beta_regularizer": null, "gamma_regularizer": null, "beta_constraint": null, "gamma_constraint": null}, "inbound_nodes": [[["conv2d_446", 0, 0, {}]]]}, {"name": "activation_446", "class_name": "Activation", "config": {"name": "activation_446", "trainable": false, "activation": "relu"}, "inbound_nodes": [[["batch_normalization_446", 0, 0, {}]]]}, {"name": "conv2d_444", "class_name": "Conv2D", "config": {"name": "conv2d_444", "trainable": false, "filters": 32, "kernel_size": [1, 1], "strides": [1, 1], "padding": "same", "data_format": "channels_last", "dilation_rate": [1, 1], "activation": "linear", "use_bias": false, "kernel_initializer": {"class_name": "VarianceScaling", "config": {"scale": 1.0, "mode": "fan_avg", "distribution": "uniform", "seed": null}}, "bias_initializer": {"class_name": "Zeros", "config": {}}, "kernel_regularizer": null, "bias_regularizer": null, "activity_regularizer": null, "kernel_constraint": null, "bias_constraint": null}, "inbound_nodes": [[["block35_4_ac", 0, 0, {}]]]}, {"name": "conv2d_447", "class_name": "Conv2D", "config": {"name": "conv2d_447", "trainable": false, "filters": 48, "kernel_size": [3, 3], "strides": [1, 1], "padding": "same", "data_format": "channels_last", "dilation_rate": [1, 1], "activation": "linear", "use_bias": false, "kernel_initializer": {"class_name": "VarianceScaling", "config": {"scale": 1.0, "mode": "fan_avg", "distribution": "uniform", "seed": null}}, "bias_initializer": {"class_name": "Zeros", "config": {}}, "kernel_regularizer": null, "bias_regularizer": null, "activity_regularizer": null, "kernel_constraint": null, "bias_constraint": null}, "inbound_nodes": [[["activation_446", 0, 0, {}]]]}, {"name": "batch_normalization_444", "class_name": "BatchNormalization", "config": {"name": "batch_normalization_444", "trainable": false, "axis": 3, "momentum": 0.99, "epsilon": 0.001, "center": true, "scale": false, "beta_initializer": {"class_name": "Zeros", "config": {}}, "gamma_initializer": {"class_name": "Ones", "config": {}}, "moving_mean_initializer": {"class_name": "Zeros", "config": {}}, "moving_variance_initializer": {"class_name": "Ones", "config": {}}, "beta_regularizer": null, "gamma_regularizer": null, "beta_constraint": null, "gamma_constraint": null}, "inbound_nodes": [[["conv2d_444", 0, 0, {}]]]}, {"name": "batch_normalization_447", "class_name": "BatchNormalization", "config": {"name": "batch_normalization_447", "trainable": false, "axis": 3, "momentum": 0.99, "epsilon": 0.001, "center": true, "scale": false, "beta_initializer": {"class_name": "Zeros", "config": {}}, "gamma_initializer": {"class_name": "Ones", "config": {}}, "moving_mean_initializer": {"class_name": "Zeros", "config": {}}, "moving_variance_initializer": {"class_name": "Ones", "config": {}}, "beta_regularizer": null, "gamma_regularizer": null, "beta_constraint": null, "gamma_constraint": null}, "inbound_nodes": [[["conv2d_447", 0, 0, {}]]]}, {"name": "activation_444", "class_name": "Activation", "config": {"name": "activation_444", "trainable": false, "activation": "relu"}, "inbound_nodes": [[["batch_normalization_444", 0, 0, {}]]]}, {"name": "activation_447", "class_name": "Activation", "config": {"name": "activation_447", "trainable": false, "activation": "relu"}, "inbound_nodes": [[["batch_normalization_447", 0, 0, {}]]]}, {"name": "conv2d_443", "class_name": "Conv2D", "config": {"name": "conv2d_443", "trainable": false, "filters": 32, "kernel_size": [1, 1], "strides": [1, 1], "padding": "same", "data_format": "channels_last", "dilation_rate": [1, 1], "activation": "linear", "use_bias": false, "kernel_initializer": {"class_name": "VarianceScaling", "config": {"scale": 1.0, "mode": "fan_avg", "distribution": "uniform", "seed": null}}, "bias_initializer": {"class_name": "Zeros", "config": {}}, "kernel_regularizer": null, "bias_regularizer": null, "activity_regularizer": null, "kernel_constraint": null, "bias_constraint": null}, "inbound_nodes": [[["block35_4_ac", 0, 0, {}]]]}, {"name": "conv2d_445", "class_name": "Conv2D", "config": {"name": "conv2d_445", "trainable": false, "filters": 32, "kernel_size": [3, 3], "strides": [1, 1], "padding": "same", "data_format": "channels_last", "dilation_rate": [1, 1], "activation": "linear", "use_bias": false, "kernel_initializer": {"class_name": "VarianceScaling", "config": {"scale": 1.0, "mode": "fan_avg", "distribution": "uniform", "seed": null}}, "bias_initializer": {"class_name": "Zeros", "config": {}}, "kernel_regularizer": null, "bias_regularizer": null, "activity_regularizer": null, "kernel_constraint": null, "bias_constraint": null}, "inbound_nodes": [[["activation_444", 0, 0, {}]]]}, {"name": "conv2d_448", "class_name": "Conv2D", "config": {"name": "conv2d_448", "trainable": false, "filters": 64, "kernel_size": [3, 3], "strides": [1, 1], "padding": "same", "data_format": "channels_last", "dilation_rate": [1, 1], "activation": "linear", "use_bias": false, "kernel_initializer": {"class_name": "VarianceScaling", "config": {"scale": 1.0, "mode": "fan_avg", "distribution": "uniform", "seed": null}}, "bias_initializer": {"class_name": "Zeros", "config": {}}, "kernel_regularizer": null, "bias_regularizer": null, "activity_regularizer": null, "kernel_constraint": null, "bias_constraint": null}, "inbound_nodes": [[["activation_447", 0, 0, {}]]]}, {"name": "batch_normalization_443", "class_name": "BatchNormalization", "config": {"name": "batch_normalization_443", "trainable": false, "axis": 3, "momentum": 0.99, "epsilon": 0.001, "center": true, "scale": false, "beta_initializer": {"class_name": "Zeros", "config": {}}, "gamma_initializer": {"class_name": "Ones", "config": {}}, "moving_mean_initializer": {"class_name": "Zeros", "config": {}}, "moving_variance_initializer": {"class_name": "Ones", "config": {}}, "beta_regularizer": null, "gamma_regularizer": null, "beta_constraint": null, "gamma_constraint": null}, "inbound_nodes": [[["conv2d_443", 0, 0, {}]]]}, {"name": "batch_normalization_445", "class_name": "BatchNormalization", "config": {"name": "batch_normalization_445", "trainable": false, "axis": 3, "momentum": 0.99, "epsilon": 0.001, "center": true, "scale": false, "beta_initializer": {"class_name": "Zeros", "config": {}}, "gamma_initializer": {"class_name": "Ones", "config": {}}, "moving_mean_initializer": {"class_name": "Zeros", "config": {}}, "moving_variance_initializer": {"class_name": "Ones", "config": {}}, "beta_regularizer": null, "gamma_regularizer": null, "beta_constraint": null, "gamma_constraint": null}, "inbound_nodes": [[["conv2d_445", 0, 0, {}]]]}, {"name": "batch_normalization_448", "class_name": "BatchNormalization", "config": {"name": "batch_normalization_448", "trainable": false, "axis": 3, "momentum": 0.99, "epsilon": 0.001, "center": true, "scale": false, "beta_initializer": {"class_name": "Zeros", "config": {}}, "gamma_initializer": {"class_name": "Ones", "config": {}}, "moving_mean_initializer": {"class_name": "Zeros", "config": {}}, "moving_variance_initializer": {"class_name": "Ones", "config": {}}, "beta_regularizer": null, "gamma_regularizer": null, "beta_constraint": null, "gamma_constraint": null}, "inbound_nodes": [[["conv2d_448", 0, 0, {}]]]}, {"name": "activation_443", "class_name": "Activation", "config": {"name": "activation_443", "trainable": false, "activation": "relu"}, "inbound_nodes": [[["batch_normalization_443", 0, 0, {}]]]}, {"name": "activation_445", "class_name": "Activation", "config": {"name": "activation_445", "trainable": false, "activation": "relu"}, "inbound_nodes": [[["batch_normalization_445", 0, 0, {}]]]}, {"name": "activation_448", "class_name": "Activation", "config": {"name": "activation_448", "trainable": false, "activation": "relu"}, "inbound_nodes": [[["batch_normalization_448", 0, 0, {}]]]}, {"name": "block35_5_mixed", "class_name": "Concatenate", "config": {"name": "block35_5_mixed", "trainable": false, "axis": 3}, "inbound_nodes": [[["activation_443", 0, 0, {}], ["activation_445", 0, 0, {}], ["activation_448", 0, 0, {}]]]}, {"name": "block35_5_conv", "class_name": "Conv2D", "config": {"name": "block35_5_conv", "trainable": false, "filters": 320, "kernel_size": [1, 1], "strides": [1, 1], "padding": "same", "data_format": "channels_last", "dilation_rate": [1, 1], "activation": "linear", "use_bias": true, "kernel_initializer": {"class_name": "VarianceScaling", "config": {"scale": 1.0, "mode": "fan_avg", "distribution": "uniform", "seed": null}}, "bias_initializer": {"class_name": "Zeros", "config": {}}, "kernel_regularizer": null, "bias_regularizer": null, "activity_regularizer": null, "kernel_constraint": null, "bias_constraint": null}, "inbound_nodes": [[["block35_5_mixed", 0, 0, {}]]]}, {"name": "block35_5", "class_name": "Lambda", "config": {"name": "block35_5", "trainable": false, "function": ["4wIAAAAAAAAAAgAAAAMAAABTAAAAcxQAAAB8AGQBGQB8AGQCGQB8ARQAFwBTACkDTukAAAAA6QEA\nAACpACkC2gZpbnB1dHPaBXNjYWxlcgMAAAByAwAAAPpnL1VzZXJzL3Nlby1iLy52aXJ0dWFsZW52\ncy9wbGFpZDM3L2xpYi9weXRob24zLjcvc2l0ZS1wYWNrYWdlcy9rZXJhc19hcHBsaWNhdGlvbnMv\naW5jZXB0aW9uX3Jlc25ldF92Mi5wedoIPGxhbWJkYT6oAAAA8wAAAAA=\n", null, null], "function_type": "lambda", "output_shape": [80, 80, 320], "output_shape_type": "raw", "arguments": {"scale": 0.17}}, "inbound_nodes": [[["block35_4_ac", 0, 0, {}], ["block35_5_conv", 0, 0, {}]]]}, {"name": "block35_5_ac", "class_name": "Activation", "config": {"name": "block35_5_ac", "trainable": false, "activation": "relu"}, "inbound_nodes": [[["block35_5", 0, 0, {}]]]}, {"name": "conv2d_452", "class_name": "Conv2D", "config": {"name": "conv2d_452", "trainable": false, "filters": 32, "kernel_size": [1, 1], "strides": [1, 1], "padding": "same", "data_format": "channels_last", "dilation_rate": [1, 1], "activation": "linear", "use_bias": false, "kernel_initializer": {"class_name": "VarianceScaling", "config": {"scale": 1.0, "mode": "fan_avg", "distribution": "uniform", "seed": null}}, "bias_initializer": {"class_name": "Zeros", "config": {}}, "kernel_regularizer": null, "bias_regularizer": null, "activity_regularizer": null, "kernel_constraint": null, "bias_constraint": null}, "inbound_nodes": [[["block35_5_ac", 0, 0, {}]]]}, {"name": "batch_normalization_452", "class_name": "BatchNormalization", "config": {"name": "batch_normalization_452", "trainable": false, "axis": 3, "momentum": 0.99, "epsilon": 0.001, "center": true, "scale": false, "beta_initializer": {"class_name": "Zeros", "config": {}}, "gamma_initializer": {"class_name": "Ones", "config": {}}, "moving_mean_initializer": {"class_name": "Zeros", "config": {}}, "moving_variance_initializer": {"class_name": "Ones", "config": {}}, "beta_regularizer": null, "gamma_regularizer": null, "beta_constraint": null, "gamma_constraint": null}, "inbound_nodes": [[["conv2d_452", 0, 0, {}]]]}, {"name": "activation_452", "class_name": "Activation", "config": {"name": "activation_452", "trainable": false, "activation": "relu"}, "inbound_nodes": [[["batch_normalization_452", 0, 0, {}]]]}, {"name": "conv2d_450", "class_name": "Conv2D", "config": {"name": "conv2d_450", "trainable": false, "filters": 32, "kernel_size": [1, 1], "strides": [1, 1], "padding": "same", "data_format": "channels_last", "dilation_rate": [1, 1], "activation": "linear", "use_bias": false, "kernel_initializer": {"class_name": "VarianceScaling", "config": {"scale": 1.0, "mode": "fan_avg", "distribution": "uniform", "seed": null}}, "bias_initializer": {"class_name": "Zeros", "config": {}}, "kernel_regularizer": null, "bias_regularizer": null, "activity_regularizer": null, "kernel_constraint": null, "bias_constraint": null}, "inbound_nodes": [[["block35_5_ac", 0, 0, {}]]]}, {"name": "conv2d_453", "class_name": "Conv2D", "config": {"name": "conv2d_453", "trainable": false, "filters": 48, "kernel_size": [3, 3], "strides": [1, 1], "padding": "same", "data_format": "channels_last", "dilation_rate": [1, 1], "activation": "linear", "use_bias": false, "kernel_initializer": {"class_name": "VarianceScaling", "config": {"scale": 1.0, "mode": "fan_avg", "distribution": "uniform", "seed": null}}, "bias_initializer": {"class_name": "Zeros", "config": {}}, "kernel_regularizer": null, "bias_regularizer": null, "activity_regularizer": null, "kernel_constraint": null, "bias_constraint": null}, "inbound_nodes": [[["activation_452", 0, 0, {}]]]}, {"name": "batch_normalization_450", "class_name": "BatchNormalization", "config": {"name": "batch_normalization_450", "trainable": false, "axis": 3, "momentum": 0.99, "epsilon": 0.001, "center": true, "scale": false, "beta_initializer": {"class_name": "Zeros", "config": {}}, "gamma_initializer": {"class_name": "Ones", "config": {}}, "moving_mean_initializer": {"class_name": "Zeros", "config": {}}, "moving_variance_initializer": {"class_name": "Ones", "config": {}}, "beta_regularizer": null, "gamma_regularizer": null, "beta_constraint": null, "gamma_constraint": null}, "inbound_nodes": [[["conv2d_450", 0, 0, {}]]]}, {"name": "batch_normalization_453", "class_name": "BatchNormalization", "config": {"name": "batch_normalization_453", "trainable": false, "axis": 3, "momentum": 0.99, "epsilon": 0.001, "center": true, "scale": false, "beta_initializer": {"class_name": "Zeros", "config": {}}, "gamma_initializer": {"class_name": "Ones", "config": {}}, "moving_mean_initializer": {"class_name": "Zeros", "config": {}}, "moving_variance_initializer": {"class_name": "Ones", "config": {}}, "beta_regularizer": null, "gamma_regularizer": null, "beta_constraint": null, "gamma_constraint": null}, "inbound_nodes": [[["conv2d_453", 0, 0, {}]]]}, {"name": "activation_450", "class_name": "Activation", "config": {"name": "activation_450", "trainable": false, "activation": "relu"}, "inbound_nodes": [[["batch_normalization_450", 0, 0, {}]]]}, {"name": "activation_453", "class_name": "Activation", "config": {"name": "activation_453", "trainable": false, "activation": "relu"}, "inbound_nodes": [[["batch_normalization_453", 0, 0, {}]]]}, {"name": "conv2d_449", "class_name": "Conv2D", "config": {"name": "conv2d_449", "trainable": false, "filters": 32, "kernel_size": [1, 1], "strides": [1, 1], "padding": "same", "data_format": "channels_last", "dilation_rate": [1, 1], "activation": "linear", "use_bias": false, "kernel_initializer": {"class_name": "VarianceScaling", "config": {"scale": 1.0, "mode": "fan_avg", "distribution": "uniform", "seed": null}}, "bias_initializer": {"class_name": "Zeros", "config": {}}, "kernel_regularizer": null, "bias_regularizer": null, "activity_regularizer": null, "kernel_constraint": null, "bias_constraint": null}, "inbound_nodes": [[["block35_5_ac", 0, 0, {}]]]}, {"name": "conv2d_451", "class_name": "Conv2D", "config": {"name": "conv2d_451", "trainable": false, "filters": 32, "kernel_size": [3, 3], "strides": [1, 1], "padding": "same", "data_format": "channels_last", "dilation_rate": [1, 1], "activation": "linear", "use_bias": false, "kernel_initializer": {"class_name": "VarianceScaling", "config": {"scale": 1.0, "mode": "fan_avg", "distribution": "uniform", "seed": null}}, "bias_initializer": {"class_name": "Zeros", "config": {}}, "kernel_regularizer": null, "bias_regularizer": null, "activity_regularizer": null, "kernel_constraint": null, "bias_constraint": null}, "inbound_nodes": [[["activation_450", 0, 0, {}]]]}, {"name": "conv2d_454", "class_name": "Conv2D", "config": {"name": "conv2d_454", "trainable": false, "filters": 64, "kernel_size": [3, 3], "strides": [1, 1], "padding": "same", "data_format": "channels_last", "dilation_rate": [1, 1], "activation": "linear", "use_bias": false, "kernel_initializer": {"class_name": "VarianceScaling", "config": {"scale": 1.0, "mode": "fan_avg", "distribution": "uniform", "seed": null}}, "bias_initializer": {"class_name": "Zeros", "config": {}}, "kernel_regularizer": null, "bias_regularizer": null, "activity_regularizer": null, "kernel_constraint": null, "bias_constraint": null}, "inbound_nodes": [[["activation_453", 0, 0, {}]]]}, {"name": "batch_normalization_449", "class_name": "BatchNormalization", "config": {"name": "batch_normalization_449", "trainable": false, "axis": 3, "momentum": 0.99, "epsilon": 0.001, "center": true, "scale": false, "beta_initializer": {"class_name": "Zeros", "config": {}}, "gamma_initializer": {"class_name": "Ones", "config": {}}, "moving_mean_initializer": {"class_name": "Zeros", "config": {}}, "moving_variance_initializer": {"class_name": "Ones", "config": {}}, "beta_regularizer": null, "gamma_regularizer": null, "beta_constraint": null, "gamma_constraint": null}, "inbound_nodes": [[["conv2d_449", 0, 0, {}]]]}, {"name": "batch_normalization_451", "class_name": "BatchNormalization", "config": {"name": "batch_normalization_451", "trainable": false, "axis": 3, "momentum": 0.99, "epsilon": 0.001, "center": true, "scale": false, "beta_initializer": {"class_name": "Zeros", "config": {}}, "gamma_initializer": {"class_name": "Ones", "config": {}}, "moving_mean_initializer": {"class_name": "Zeros", "config": {}}, "moving_variance_initializer": {"class_name": "Ones", "config": {}}, "beta_regularizer": null, "gamma_regularizer": null, "beta_constraint": null, "gamma_constraint": null}, "inbound_nodes": [[["conv2d_451", 0, 0, {}]]]}, {"name": "batch_normalization_454", "class_name": "BatchNormalization", "config": {"name": "batch_normalization_454", "trainable": false, "axis": 3, "momentum": 0.99, "epsilon": 0.001, "center": true, "scale": false, "beta_initializer": {"class_name": "Zeros", "config": {}}, "gamma_initializer": {"class_name": "Ones", "config": {}}, "moving_mean_initializer": {"class_name": "Zeros", "config": {}}, "moving_variance_initializer": {"class_name": "Ones", "config": {}}, "beta_regularizer": null, "gamma_regularizer": null, "beta_constraint": null, "gamma_constraint": null}, "inbound_nodes": [[["conv2d_454", 0, 0, {}]]]}, {"name": "activation_449", "class_name": "Activation", "config": {"name": "activation_449", "trainable": false, "activation": "relu"}, "inbound_nodes": [[["batch_normalization_449", 0, 0, {}]]]}, {"name": "activation_451", "class_name": "Activation", "config": {"name": "activation_451", "trainable": false, "activation": "relu"}, "inbound_nodes": [[["batch_normalization_451", 0, 0, {}]]]}, {"name": "activation_454", "class_name": "Activation", "config": {"name": "activation_454", "trainable": false, "activation": "relu"}, "inbound_nodes": [[["batch_normalization_454", 0, 0, {}]]]}, {"name": "block35_6_mixed", "class_name": "Concatenate", "config": {"name": "block35_6_mixed", "trainable": false, "axis": 3}, "inbound_nodes": [[["activation_449", 0, 0, {}], ["activation_451", 0, 0, {}], ["activation_454", 0, 0, {}]]]}, {"name": "block35_6_conv", "class_name": "Conv2D", "config": {"name": "block35_6_conv", "trainable": false, "filters": 320, "kernel_size": [1, 1], "strides": [1, 1], "padding": "same", "data_format": "channels_last", "dilation_rate": [1, 1], "activation": "linear", "use_bias": true, "kernel_initializer": {"class_name": "VarianceScaling", "config": {"scale": 1.0, "mode": "fan_avg", "distribution": "uniform", "seed": null}}, "bias_initializer": {"class_name": "Zeros", "config": {}}, "kernel_regularizer": null, "bias_regularizer": null, "activity_regularizer": null, "kernel_constraint": null, "bias_constraint": null}, "inbound_nodes": [[["block35_6_mixed", 0, 0, {}]]]}, {"name": "block35_6", "class_name": "Lambda", "config": {"name": "block35_6", "trainable": false, "function": ["4wIAAAAAAAAAAgAAAAMAAABTAAAAcxQAAAB8AGQBGQB8AGQCGQB8ARQAFwBTACkDTukAAAAA6QEA\nAACpACkC2gZpbnB1dHPaBXNjYWxlcgMAAAByAwAAAPpnL1VzZXJzL3Nlby1iLy52aXJ0dWFsZW52\ncy9wbGFpZDM3L2xpYi9weXRob24zLjcvc2l0ZS1wYWNrYWdlcy9rZXJhc19hcHBsaWNhdGlvbnMv\naW5jZXB0aW9uX3Jlc25ldF92Mi5wedoIPGxhbWJkYT6oAAAA8wAAAAA=\n", null, null], "function_type": "lambda", "output_shape": [80, 80, 320], "output_shape_type": "raw", "arguments": {"scale": 0.17}}, "inbound_nodes": [[["block35_5_ac", 0, 0, {}], ["block35_6_conv", 0, 0, {}]]]}, {"name": "block35_6_ac", "class_name": "Activation", "config": {"name": "block35_6_ac", "trainable": false, "activation": "relu"}, "inbound_nodes": [[["block35_6", 0, 0, {}]]]}, {"name": "conv2d_458", "class_name": "Conv2D", "config": {"name": "conv2d_458", "trainable": false, "filters": 32, "kernel_size": [1, 1], "strides": [1, 1], "padding": "same", "data_format": "channels_last", "dilation_rate": [1, 1], "activation": "linear", "use_bias": false, "kernel_initializer": {"class_name": "VarianceScaling", "config": {"scale": 1.0, "mode": "fan_avg", "distribution": "uniform", "seed": null}}, "bias_initializer": {"class_name": "Zeros", "config": {}}, "kernel_regularizer": null, "bias_regularizer": null, "activity_regularizer": null, "kernel_constraint": null, "bias_constraint": null}, "inbound_nodes": [[["block35_6_ac", 0, 0, {}]]]}, {"name": "batch_normalization_458", "class_name": "BatchNormalization", "config": {"name": "batch_normalization_458", "trainable": false, "axis": 3, "momentum": 0.99, "epsilon": 0.001, "center": true, "scale": false, "beta_initializer": {"class_name": "Zeros", "config": {}}, "gamma_initializer": {"class_name": "Ones", "config": {}}, "moving_mean_initializer": {"class_name": "Zeros", "config": {}}, "moving_variance_initializer": {"class_name": "Ones", "config": {}}, "beta_regularizer": null, "gamma_regularizer": null, "beta_constraint": null, "gamma_constraint": null}, "inbound_nodes": [[["conv2d_458", 0, 0, {}]]]}, {"name": "activation_458", "class_name": "Activation", "config": {"name": "activation_458", "trainable": false, "activation": "relu"}, "inbound_nodes": [[["batch_normalization_458", 0, 0, {}]]]}, {"name": "conv2d_456", "class_name": "Conv2D", "config": {"name": "conv2d_456", "trainable": false, "filters": 32, "kernel_size": [1, 1], "strides": [1, 1], "padding": "same", "data_format": "channels_last", "dilation_rate": [1, 1], "activation": "linear", "use_bias": false, "kernel_initializer": {"class_name": "VarianceScaling", "config": {"scale": 1.0, "mode": "fan_avg", "distribution": "uniform", "seed": null}}, "bias_initializer": {"class_name": "Zeros", "config": {}}, "kernel_regularizer": null, "bias_regularizer": null, "activity_regularizer": null, "kernel_constraint": null, "bias_constraint": null}, "inbound_nodes": [[["block35_6_ac", 0, 0, {}]]]}, {"name": "conv2d_459", "class_name": "Conv2D", "config": {"name": "conv2d_459", "trainable": false, "filters": 48, "kernel_size": [3, 3], "strides": [1, 1], "padding": "same", "data_format": "channels_last", "dilation_rate": [1, 1], "activation": "linear", "use_bias": false, "kernel_initializer": {"class_name": "VarianceScaling", "config": {"scale": 1.0, "mode": "fan_avg", "distribution": "uniform", "seed": null}}, "bias_initializer": {"class_name": "Zeros", "config": {}}, "kernel_regularizer": null, "bias_regularizer": null, "activity_regularizer": null, "kernel_constraint": null, "bias_constraint": null}, "inbound_nodes": [[["activation_458", 0, 0, {}]]]}, {"name": "batch_normalization_456", "class_name": "BatchNormalization", "config": {"name": "batch_normalization_456", "trainable": false, "axis": 3, "momentum": 0.99, "epsilon": 0.001, "center": true, "scale": false, "beta_initializer": {"class_name": "Zeros", "config": {}}, "gamma_initializer": {"class_name": "Ones", "config": {}}, "moving_mean_initializer": {"class_name": "Zeros", "config": {}}, "moving_variance_initializer": {"class_name": "Ones", "config": {}}, "beta_regularizer": null, "gamma_regularizer": null, "beta_constraint": null, "gamma_constraint": null}, "inbound_nodes": [[["conv2d_456", 0, 0, {}]]]}, {"name": "batch_normalization_459", "class_name": "BatchNormalization", "config": {"name": "batch_normalization_459", "trainable": false, "axis": 3, "momentum": 0.99, "epsilon": 0.001, "center": true, "scale": false, "beta_initializer": {"class_name": "Zeros", "config": {}}, "gamma_initializer": {"class_name": "Ones", "config": {}}, "moving_mean_initializer": {"class_name": "Zeros", "config": {}}, "moving_variance_initializer": {"class_name": "Ones", "config": {}}, "beta_regularizer": null, "gamma_regularizer": null, "beta_constraint": null, "gamma_constraint": null}, "inbound_nodes": [[["conv2d_459", 0, 0, {}]]]}, {"name": "activation_456", "class_name": "Activation", "config": {"name": "activation_456", "trainable": false, "activation": "relu"}, "inbound_nodes": [[["batch_normalization_456", 0, 0, {}]]]}, {"name": "activation_459", "class_name": "Activation", "config": {"name": "activation_459", "trainable": false, "activation": "relu"}, "inbound_nodes": [[["batch_normalization_459", 0, 0, {}]]]}, {"name": "conv2d_455", "class_name": "Conv2D", "config": {"name": "conv2d_455", "trainable": false, "filters": 32, "kernel_size": [1, 1], "strides": [1, 1], "padding": "same", "data_format": "channels_last", "dilation_rate": [1, 1], "activation": "linear", "use_bias": false, "kernel_initializer": {"class_name": "VarianceScaling", "config": {"scale": 1.0, "mode": "fan_avg", "distribution": "uniform", "seed": null}}, "bias_initializer": {"class_name": "Zeros", "config": {}}, "kernel_regularizer": null, "bias_regularizer": null, "activity_regularizer": null, "kernel_constraint": null, "bias_constraint": null}, "inbound_nodes": [[["block35_6_ac", 0, 0, {}]]]}, {"name": "conv2d_457", "class_name": "Conv2D", "config": {"name": "conv2d_457", "trainable": false, "filters": 32, "kernel_size": [3, 3], "strides": [1, 1], "padding": "same", "data_format": "channels_last", "dilation_rate": [1, 1], "activation": "linear", "use_bias": false, "kernel_initializer": {"class_name": "VarianceScaling", "config": {"scale": 1.0, "mode": "fan_avg", "distribution": "uniform", "seed": null}}, "bias_initializer": {"class_name": "Zeros", "config": {}}, "kernel_regularizer": null, "bias_regularizer": null, "activity_regularizer": null, "kernel_constraint": null, "bias_constraint": null}, "inbound_nodes": [[["activation_456", 0, 0, {}]]]}, {"name": "conv2d_460", "class_name": "Conv2D", "config": {"name": "conv2d_460", "trainable": false, "filters": 64, "kernel_size": [3, 3], "strides": [1, 1], "padding": "same", "data_format": "channels_last", "dilation_rate": [1, 1], "activation": "linear", "use_bias": false, "kernel_initializer": {"class_name": "VarianceScaling", "config": {"scale": 1.0, "mode": "fan_avg", "distribution": "uniform", "seed": null}}, "bias_initializer": {"class_name": "Zeros", "config": {}}, "kernel_regularizer": null, "bias_regularizer": null, "activity_regularizer": null, "kernel_constraint": null, "bias_constraint": null}, "inbound_nodes": [[["activation_459", 0, 0, {}]]]}, {"name": "batch_normalization_455", "class_name": "BatchNormalization", "config": {"name": "batch_normalization_455", "trainable": false, "axis": 3, "momentum": 0.99, "epsilon": 0.001, "center": true, "scale": false, "beta_initializer": {"class_name": "Zeros", "config": {}}, "gamma_initializer": {"class_name": "Ones", "config": {}}, "moving_mean_initializer": {"class_name": "Zeros", "config": {}}, "moving_variance_initializer": {"class_name": "Ones", "config": {}}, "beta_regularizer": null, "gamma_regularizer": null, "beta_constraint": null, "gamma_constraint": null}, "inbound_nodes": [[["conv2d_455", 0, 0, {}]]]}, {"name": "batch_normalization_457", "class_name": "BatchNormalization", "config": {"name": "batch_normalization_457", "trainable": false, "axis": 3, "momentum": 0.99, "epsilon": 0.001, "center": true, "scale": false, "beta_initializer": {"class_name": "Zeros", "config": {}}, "gamma_initializer": {"class_name": "Ones", "config": {}}, "moving_mean_initializer": {"class_name": "Zeros", "config": {}}, "moving_variance_initializer": {"class_name": "Ones", "config": {}}, "beta_regularizer": null, "gamma_regularizer": null, "beta_constraint": null, "gamma_constraint": null}, "inbound_nodes": [[["conv2d_457", 0, 0, {}]]]}, {"name": "batch_normalization_460", "class_name": "BatchNormalization", "config": {"name": "batch_normalization_460", "trainable": false, "axis": 3, "momentum": 0.99, "epsilon": 0.001, "center": true, "scale": false, "beta_initializer": {"class_name": "Zeros", "config": {}}, "gamma_initializer": {"class_name": "Ones", "config": {}}, "moving_mean_initializer": {"class_name": "Zeros", "config": {}}, "moving_variance_initializer": {"class_name": "Ones", "config": {}}, "beta_regularizer": null, "gamma_regularizer": null, "beta_constraint": null, "gamma_constraint": null}, "inbound_nodes": [[["conv2d_460", 0, 0, {}]]]}, {"name": "activation_455", "class_name": "Activation", "config": {"name": "activation_455", "trainable": false, "activation": "relu"}, "inbound_nodes": [[["batch_normalization_455", 0, 0, {}]]]}, {"name": "activation_457", "class_name": "Activation", "config": {"name": "activation_457", "trainable": false, "activation": "relu"}, "inbound_nodes": [[["batch_normalization_457", 0, 0, {}]]]}, {"name": "activation_460", "class_name": "Activation", "config": {"name": "activation_460", "trainable": false, "activation": "relu"}, "inbound_nodes": [[["batch_normalization_460", 0, 0, {}]]]}, {"name": "block35_7_mixed", "class_name": "Concatenate", "config": {"name": "block35_7_mixed", "trainable": false, "axis": 3}, "inbound_nodes": [[["activation_455", 0, 0, {}], ["activation_457", 0, 0, {}], ["activation_460", 0, 0, {}]]]}, {"name": "block35_7_conv", "class_name": "Conv2D", "config": {"name": "block35_7_conv", "trainable": false, "filters": 320, "kernel_size": [1, 1], "strides": [1, 1], "padding": "same", "data_format": "channels_last", "dilation_rate": [1, 1], "activation": "linear", "use_bias": true, "kernel_initializer": {"class_name": "VarianceScaling", "config": {"scale": 1.0, "mode": "fan_avg", "distribution": "uniform", "seed": null}}, "bias_initializer": {"class_name": "Zeros", "config": {}}, "kernel_regularizer": null, "bias_regularizer": null, "activity_regularizer": null, "kernel_constraint": null, "bias_constraint": null}, "inbound_nodes": [[["block35_7_mixed", 0, 0, {}]]]}, {"name": "block35_7", "class_name": "Lambda", "config": {"name": "block35_7", "trainable": false, "function": ["4wIAAAAAAAAAAgAAAAMAAABTAAAAcxQAAAB8AGQBGQB8AGQCGQB8ARQAFwBTACkDTukAAAAA6QEA\nAACpACkC2gZpbnB1dHPaBXNjYWxlcgMAAAByAwAAAPpnL1VzZXJzL3Nlby1iLy52aXJ0dWFsZW52\ncy9wbGFpZDM3L2xpYi9weXRob24zLjcvc2l0ZS1wYWNrYWdlcy9rZXJhc19hcHBsaWNhdGlvbnMv\naW5jZXB0aW9uX3Jlc25ldF92Mi5wedoIPGxhbWJkYT6oAAAA8wAAAAA=\n", null, null], "function_type": "lambda", "output_shape": [80, 80, 320], "output_shape_type": "raw", "arguments": {"scale": 0.17}}, "inbound_nodes": [[["block35_6_ac", 0, 0, {}], ["block35_7_conv", 0, 0, {}]]]}, {"name": "block35_7_ac", "class_name": "Activation", "config": {"name": "block35_7_ac", "trainable": false, "activation": "relu"}, "inbound_nodes": [[["block35_7", 0, 0, {}]]]}, {"name": "conv2d_464", "class_name": "Conv2D", "config": {"name": "conv2d_464", "trainable": false, "filters": 32, "kernel_size": [1, 1], "strides": [1, 1], "padding": "same", "data_format": "channels_last", "dilation_rate": [1, 1], "activation": "linear", "use_bias": false, "kernel_initializer": {"class_name": "VarianceScaling", "config": {"scale": 1.0, "mode": "fan_avg", "distribution": "uniform", "seed": null}}, "bias_initializer": {"class_name": "Zeros", "config": {}}, "kernel_regularizer": null, "bias_regularizer": null, "activity_regularizer": null, "kernel_constraint": null, "bias_constraint": null}, "inbound_nodes": [[["block35_7_ac", 0, 0, {}]]]}, {"name": "batch_normalization_464", "class_name": "BatchNormalization", "config": {"name": "batch_normalization_464", "trainable": false, "axis": 3, "momentum": 0.99, "epsilon": 0.001, "center": true, "scale": false, "beta_initializer": {"class_name": "Zeros", "config": {}}, "gamma_initializer": {"class_name": "Ones", "config": {}}, "moving_mean_initializer": {"class_name": "Zeros", "config": {}}, "moving_variance_initializer": {"class_name": "Ones", "config": {}}, "beta_regularizer": null, "gamma_regularizer": null, "beta_constraint": null, "gamma_constraint": null}, "inbound_nodes": [[["conv2d_464", 0, 0, {}]]]}, {"name": "activation_464", "class_name": "Activation", "config": {"name": "activation_464", "trainable": false, "activation": "relu"}, "inbound_nodes": [[["batch_normalization_464", 0, 0, {}]]]}, {"name": "conv2d_462", "class_name": "Conv2D", "config": {"name": "conv2d_462", "trainable": false, "filters": 32, "kernel_size": [1, 1], "strides": [1, 1], "padding": "same", "data_format": "channels_last", "dilation_rate": [1, 1], "activation": "linear", "use_bias": false, "kernel_initializer": {"class_name": "VarianceScaling", "config": {"scale": 1.0, "mode": "fan_avg", "distribution": "uniform", "seed": null}}, "bias_initializer": {"class_name": "Zeros", "config": {}}, "kernel_regularizer": null, "bias_regularizer": null, "activity_regularizer": null, "kernel_constraint": null, "bias_constraint": null}, "inbound_nodes": [[["block35_7_ac", 0, 0, {}]]]}, {"name": "conv2d_465", "class_name": "Conv2D", "config": {"name": "conv2d_465", "trainable": false, "filters": 48, "kernel_size": [3, 3], "strides": [1, 1], "padding": "same", "data_format": "channels_last", "dilation_rate": [1, 1], "activation": "linear", "use_bias": false, "kernel_initializer": {"class_name": "VarianceScaling", "config": {"scale": 1.0, "mode": "fan_avg", "distribution": "uniform", "seed": null}}, "bias_initializer": {"class_name": "Zeros", "config": {}}, "kernel_regularizer": null, "bias_regularizer": null, "activity_regularizer": null, "kernel_constraint": null, "bias_constraint": null}, "inbound_nodes": [[["activation_464", 0, 0, {}]]]}, {"name": "batch_normalization_462", "class_name": "BatchNormalization", "config": {"name": "batch_normalization_462", "trainable": false, "axis": 3, "momentum": 0.99, "epsilon": 0.001, "center": true, "scale": false, "beta_initializer": {"class_name": "Zeros", "config": {}}, "gamma_initializer": {"class_name": "Ones", "config": {}}, "moving_mean_initializer": {"class_name": "Zeros", "config": {}}, "moving_variance_initializer": {"class_name": "Ones", "config": {}}, "beta_regularizer": null, "gamma_regularizer": null, "beta_constraint": null, "gamma_constraint": null}, "inbound_nodes": [[["conv2d_462", 0, 0, {}]]]}, {"name": "batch_normalization_465", "class_name": "BatchNormalization", "config": {"name": "batch_normalization_465", "trainable": false, "axis": 3, "momentum": 0.99, "epsilon": 0.001, "center": true, "scale": false, "beta_initializer": {"class_name": "Zeros", "config": {}}, "gamma_initializer": {"class_name": "Ones", "config": {}}, "moving_mean_initializer": {"class_name": "Zeros", "config": {}}, "moving_variance_initializer": {"class_name": "Ones", "config": {}}, "beta_regularizer": null, "gamma_regularizer": null, "beta_constraint": null, "gamma_constraint": null}, "inbound_nodes": [[["conv2d_465", 0, 0, {}]]]}, {"name": "activation_462", "class_name": "Activation", "config": {"name": "activation_462", "trainable": false, "activation": "relu"}, "inbound_nodes": [[["batch_normalization_462", 0, 0, {}]]]}, {"name": "activation_465", "class_name": "Activation", "config": {"name": "activation_465", "trainable": false, "activation": "relu"}, "inbound_nodes": [[["batch_normalization_465", 0, 0, {}]]]}, {"name": "conv2d_461", "class_name": "Conv2D", "config": {"name": "conv2d_461", "trainable": false, "filters": 32, "kernel_size": [1, 1], "strides": [1, 1], "padding": "same", "data_format": "channels_last", "dilation_rate": [1, 1], "activation": "linear", "use_bias": false, "kernel_initializer": {"class_name": "VarianceScaling", "config": {"scale": 1.0, "mode": "fan_avg", "distribution": "uniform", "seed": null}}, "bias_initializer": {"class_name": "Zeros", "config": {}}, "kernel_regularizer": null, "bias_regularizer": null, "activity_regularizer": null, "kernel_constraint": null, "bias_constraint": null}, "inbound_nodes": [[["block35_7_ac", 0, 0, {}]]]}, {"name": "conv2d_463", "class_name": "Conv2D", "config": {"name": "conv2d_463", "trainable": false, "filters": 32, "kernel_size": [3, 3], "strides": [1, 1], "padding": "same", "data_format": "channels_last", "dilation_rate": [1, 1], "activation": "linear", "use_bias": false, "kernel_initializer": {"class_name": "VarianceScaling", "config": {"scale": 1.0, "mode": "fan_avg", "distribution": "uniform", "seed": null}}, "bias_initializer": {"class_name": "Zeros", "config": {}}, "kernel_regularizer": null, "bias_regularizer": null, "activity_regularizer": null, "kernel_constraint": null, "bias_constraint": null}, "inbound_nodes": [[["activation_462", 0, 0, {}]]]}, {"name": "conv2d_466", "class_name": "Conv2D", "config": {"name": "conv2d_466", "trainable": false, "filters": 64, "kernel_size": [3, 3], "strides": [1, 1], "padding": "same", "data_format": "channels_last", "dilation_rate": [1, 1], "activation": "linear", "use_bias": false, "kernel_initializer": {"class_name": "VarianceScaling", "config": {"scale": 1.0, "mode": "fan_avg", "distribution": "uniform", "seed": null}}, "bias_initializer": {"class_name": "Zeros", "config": {}}, "kernel_regularizer": null, "bias_regularizer": null, "activity_regularizer": null, "kernel_constraint": null, "bias_constraint": null}, "inbound_nodes": [[["activation_465", 0, 0, {}]]]}, {"name": "batch_normalization_461", "class_name": "BatchNormalization", "config": {"name": "batch_normalization_461", "trainable": false, "axis": 3, "momentum": 0.99, "epsilon": 0.001, "center": true, "scale": false, "beta_initializer": {"class_name": "Zeros", "config": {}}, "gamma_initializer": {"class_name": "Ones", "config": {}}, "moving_mean_initializer": {"class_name": "Zeros", "config": {}}, "moving_variance_initializer": {"class_name": "Ones", "config": {}}, "beta_regularizer": null, "gamma_regularizer": null, "beta_constraint": null, "gamma_constraint": null}, "inbound_nodes": [[["conv2d_461", 0, 0, {}]]]}, {"name": "batch_normalization_463", "class_name": "BatchNormalization", "config": {"name": "batch_normalization_463", "trainable": false, "axis": 3, "momentum": 0.99, "epsilon": 0.001, "center": true, "scale": false, "beta_initializer": {"class_name": "Zeros", "config": {}}, "gamma_initializer": {"class_name": "Ones", "config": {}}, "moving_mean_initializer": {"class_name": "Zeros", "config": {}}, "moving_variance_initializer": {"class_name": "Ones", "config": {}}, "beta_regularizer": null, "gamma_regularizer": null, "beta_constraint": null, "gamma_constraint": null}, "inbound_nodes": [[["conv2d_463", 0, 0, {}]]]}, {"name": "batch_normalization_466", "class_name": "BatchNormalization", "config": {"name": "batch_normalization_466", "trainable": false, "axis": 3, "momentum": 0.99, "epsilon": 0.001, "center": true, "scale": false, "beta_initializer": {"class_name": "Zeros", "config": {}}, "gamma_initializer": {"class_name": "Ones", "config": {}}, "moving_mean_initializer": {"class_name": "Zeros", "config": {}}, "moving_variance_initializer": {"class_name": "Ones", "config": {}}, "beta_regularizer": null, "gamma_regularizer": null, "beta_constraint": null, "gamma_constraint": null}, "inbound_nodes": [[["conv2d_466", 0, 0, {}]]]}, {"name": "activation_461", "class_name": "Activation", "config": {"name": "activation_461", "trainable": false, "activation": "relu"}, "inbound_nodes": [[["batch_normalization_461", 0, 0, {}]]]}, {"name": "activation_463", "class_name": "Activation", "config": {"name": "activation_463", "trainable": false, "activation": "relu"}, "inbound_nodes": [[["batch_normalization_463", 0, 0, {}]]]}, {"name": "activation_466", "class_name": "Activation", "config": {"name": "activation_466", "trainable": false, "activation": "relu"}, "inbound_nodes": [[["batch_normalization_466", 0, 0, {}]]]}, {"name": "block35_8_mixed", "class_name": "Concatenate", "config": {"name": "block35_8_mixed", "trainable": false, "axis": 3}, "inbound_nodes": [[["activation_461", 0, 0, {}], ["activation_463", 0, 0, {}], ["activation_466", 0, 0, {}]]]}, {"name": "block35_8_conv", "class_name": "Conv2D", "config": {"name": "block35_8_conv", "trainable": false, "filters": 320, "kernel_size": [1, 1], "strides": [1, 1], "padding": "same", "data_format": "channels_last", "dilation_rate": [1, 1], "activation": "linear", "use_bias": true, "kernel_initializer": {"class_name": "VarianceScaling", "config": {"scale": 1.0, "mode": "fan_avg", "distribution": "uniform", "seed": null}}, "bias_initializer": {"class_name": "Zeros", "config": {}}, "kernel_regularizer": null, "bias_regularizer": null, "activity_regularizer": null, "kernel_constraint": null, "bias_constraint": null}, "inbound_nodes": [[["block35_8_mixed", 0, 0, {}]]]}, {"name": "block35_8", "class_name": "Lambda", "config": {"name": "block35_8", "trainable": false, "function": ["4wIAAAAAAAAAAgAAAAMAAABTAAAAcxQAAAB8AGQBGQB8AGQCGQB8ARQAFwBTACkDTukAAAAA6QEA\nAACpACkC2gZpbnB1dHPaBXNjYWxlcgMAAAByAwAAAPpnL1VzZXJzL3Nlby1iLy52aXJ0dWFsZW52\ncy9wbGFpZDM3L2xpYi9weXRob24zLjcvc2l0ZS1wYWNrYWdlcy9rZXJhc19hcHBsaWNhdGlvbnMv\naW5jZXB0aW9uX3Jlc25ldF92Mi5wedoIPGxhbWJkYT6oAAAA8wAAAAA=\n", null, null], "function_type": "lambda", "output_shape": [80, 80, 320], "output_shape_type": "raw", "arguments": {"scale": 0.17}}, "inbound_nodes": [[["block35_7_ac", 0, 0, {}], ["block35_8_conv", 0, 0, {}]]]}, {"name": "block35_8_ac", "class_name": "Activation", "config": {"name": "block35_8_ac", "trainable": false, "activation": "relu"}, "inbound_nodes": [[["block35_8", 0, 0, {}]]]}, {"name": "conv2d_470", "class_name": "Conv2D", "config": {"name": "conv2d_470", "trainable": false, "filters": 32, "kernel_size": [1, 1], "strides": [1, 1], "padding": "same", "data_format": "channels_last", "dilation_rate": [1, 1], "activation": "linear", "use_bias": false, "kernel_initializer": {"class_name": "VarianceScaling", "config": {"scale": 1.0, "mode": "fan_avg", "distribution": "uniform", "seed": null}}, "bias_initializer": {"class_name": "Zeros", "config": {}}, "kernel_regularizer": null, "bias_regularizer": null, "activity_regularizer": null, "kernel_constraint": null, "bias_constraint": null}, "inbound_nodes": [[["block35_8_ac", 0, 0, {}]]]}, {"name": "batch_normalization_470", "class_name": "BatchNormalization", "config": {"name": "batch_normalization_470", "trainable": false, "axis": 3, "momentum": 0.99, "epsilon": 0.001, "center": true, "scale": false, "beta_initializer": {"class_name": "Zeros", "config": {}}, "gamma_initializer": {"class_name": "Ones", "config": {}}, "moving_mean_initializer": {"class_name": "Zeros", "config": {}}, "moving_variance_initializer": {"class_name": "Ones", "config": {}}, "beta_regularizer": null, "gamma_regularizer": null, "beta_constraint": null, "gamma_constraint": null}, "inbound_nodes": [[["conv2d_470", 0, 0, {}]]]}, {"name": "activation_470", "class_name": "Activation", "config": {"name": "activation_470", "trainable": false, "activation": "relu"}, "inbound_nodes": [[["batch_normalization_470", 0, 0, {}]]]}, {"name": "conv2d_468", "class_name": "Conv2D", "config": {"name": "conv2d_468", "trainable": false, "filters": 32, "kernel_size": [1, 1], "strides": [1, 1], "padding": "same", "data_format": "channels_last", "dilation_rate": [1, 1], "activation": "linear", "use_bias": false, "kernel_initializer": {"class_name": "VarianceScaling", "config": {"scale": 1.0, "mode": "fan_avg", "distribution": "uniform", "seed": null}}, "bias_initializer": {"class_name": "Zeros", "config": {}}, "kernel_regularizer": null, "bias_regularizer": null, "activity_regularizer": null, "kernel_constraint": null, "bias_constraint": null}, "inbound_nodes": [[["block35_8_ac", 0, 0, {}]]]}, {"name": "conv2d_471", "class_name": "Conv2D", "config": {"name": "conv2d_471", "trainable": false, "filters": 48, "kernel_size": [3, 3], "strides": [1, 1], "padding": "same", "data_format": "channels_last", "dilation_rate": [1, 1], "activation": "linear", "use_bias": false, "kernel_initializer": {"class_name": "VarianceScaling", "config": {"scale": 1.0, "mode": "fan_avg", "distribution": "uniform", "seed": null}}, "bias_initializer": {"class_name": "Zeros", "config": {}}, "kernel_regularizer": null, "bias_regularizer": null, "activity_regularizer": null, "kernel_constraint": null, "bias_constraint": null}, "inbound_nodes": [[["activation_470", 0, 0, {}]]]}, {"name": "batch_normalization_468", "class_name": "BatchNormalization", "config": {"name": "batch_normalization_468", "trainable": false, "axis": 3, "momentum": 0.99, "epsilon": 0.001, "center": true, "scale": false, "beta_initializer": {"class_name": "Zeros", "config": {}}, "gamma_initializer": {"class_name": "Ones", "config": {}}, "moving_mean_initializer": {"class_name": "Zeros", "config": {}}, "moving_variance_initializer": {"class_name": "Ones", "config": {}}, "beta_regularizer": null, "gamma_regularizer": null, "beta_constraint": null, "gamma_constraint": null}, "inbound_nodes": [[["conv2d_468", 0, 0, {}]]]}, {"name": "batch_normalization_471", "class_name": "BatchNormalization", "config": {"name": "batch_normalization_471", "trainable": false, "axis": 3, "momentum": 0.99, "epsilon": 0.001, "center": true, "scale": false, "beta_initializer": {"class_name": "Zeros", "config": {}}, "gamma_initializer": {"class_name": "Ones", "config": {}}, "moving_mean_initializer": {"class_name": "Zeros", "config": {}}, "moving_variance_initializer": {"class_name": "Ones", "config": {}}, "beta_regularizer": null, "gamma_regularizer": null, "beta_constraint": null, "gamma_constraint": null}, "inbound_nodes": [[["conv2d_471", 0, 0, {}]]]}, {"name": "activation_468", "class_name": "Activation", "config": {"name": "activation_468", "trainable": false, "activation": "relu"}, "inbound_nodes": [[["batch_normalization_468", 0, 0, {}]]]}, {"name": "activation_471", "class_name": "Activation", "config": {"name": "activation_471", "trainable": false, "activation": "relu"}, "inbound_nodes": [[["batch_normalization_471", 0, 0, {}]]]}, {"name": "conv2d_467", "class_name": "Conv2D", "config": {"name": "conv2d_467", "trainable": false, "filters": 32, "kernel_size": [1, 1], "strides": [1, 1], "padding": "same", "data_format": "channels_last", "dilation_rate": [1, 1], "activation": "linear", "use_bias": false, "kernel_initializer": {"class_name": "VarianceScaling", "config": {"scale": 1.0, "mode": "fan_avg", "distribution": "uniform", "seed": null}}, "bias_initializer": {"class_name": "Zeros", "config": {}}, "kernel_regularizer": null, "bias_regularizer": null, "activity_regularizer": null, "kernel_constraint": null, "bias_constraint": null}, "inbound_nodes": [[["block35_8_ac", 0, 0, {}]]]}, {"name": "conv2d_469", "class_name": "Conv2D", "config": {"name": "conv2d_469", "trainable": false, "filters": 32, "kernel_size": [3, 3], "strides": [1, 1], "padding": "same", "data_format": "channels_last", "dilation_rate": [1, 1], "activation": "linear", "use_bias": false, "kernel_initializer": {"class_name": "VarianceScaling", "config": {"scale": 1.0, "mode": "fan_avg", "distribution": "uniform", "seed": null}}, "bias_initializer": {"class_name": "Zeros", "config": {}}, "kernel_regularizer": null, "bias_regularizer": null, "activity_regularizer": null, "kernel_constraint": null, "bias_constraint": null}, "inbound_nodes": [[["activation_468", 0, 0, {}]]]}, {"name": "conv2d_472", "class_name": "Conv2D", "config": {"name": "conv2d_472", "trainable": false, "filters": 64, "kernel_size": [3, 3], "strides": [1, 1], "padding": "same", "data_format": "channels_last", "dilation_rate": [1, 1], "activation": "linear", "use_bias": false, "kernel_initializer": {"class_name": "VarianceScaling", "config": {"scale": 1.0, "mode": "fan_avg", "distribution": "uniform", "seed": null}}, "bias_initializer": {"class_name": "Zeros", "config": {}}, "kernel_regularizer": null, "bias_regularizer": null, "activity_regularizer": null, "kernel_constraint": null, "bias_constraint": null}, "inbound_nodes": [[["activation_471", 0, 0, {}]]]}, {"name": "batch_normalization_467", "class_name": "BatchNormalization", "config": {"name": "batch_normalization_467", "trainable": false, "axis": 3, "momentum": 0.99, "epsilon": 0.001, "center": true, "scale": false, "beta_initializer": {"class_name": "Zeros", "config": {}}, "gamma_initializer": {"class_name": "Ones", "config": {}}, "moving_mean_initializer": {"class_name": "Zeros", "config": {}}, "moving_variance_initializer": {"class_name": "Ones", "config": {}}, "beta_regularizer": null, "gamma_regularizer": null, "beta_constraint": null, "gamma_constraint": null}, "inbound_nodes": [[["conv2d_467", 0, 0, {}]]]}, {"name": "batch_normalization_469", "class_name": "BatchNormalization", "config": {"name": "batch_normalization_469", "trainable": false, "axis": 3, "momentum": 0.99, "epsilon": 0.001, "center": true, "scale": false, "beta_initializer": {"class_name": "Zeros", "config": {}}, "gamma_initializer": {"class_name": "Ones", "config": {}}, "moving_mean_initializer": {"class_name": "Zeros", "config": {}}, "moving_variance_initializer": {"class_name": "Ones", "config": {}}, "beta_regularizer": null, "gamma_regularizer": null, "beta_constraint": null, "gamma_constraint": null}, "inbound_nodes": [[["conv2d_469", 0, 0, {}]]]}, {"name": "batch_normalization_472", "class_name": "BatchNormalization", "config": {"name": "batch_normalization_472", "trainable": false, "axis": 3, "momentum": 0.99, "epsilon": 0.001, "center": true, "scale": false, "beta_initializer": {"class_name": "Zeros", "config": {}}, "gamma_initializer": {"class_name": "Ones", "config": {}}, "moving_mean_initializer": {"class_name": "Zeros", "config": {}}, "moving_variance_initializer": {"class_name": "Ones", "config": {}}, "beta_regularizer": null, "gamma_regularizer": null, "beta_constraint": null, "gamma_constraint": null}, "inbound_nodes": [[["conv2d_472", 0, 0, {}]]]}, {"name": "activation_467", "class_name": "Activation", "config": {"name": "activation_467", "trainable": false, "activation": "relu"}, "inbound_nodes": [[["batch_normalization_467", 0, 0, {}]]]}, {"name": "activation_469", "class_name": "Activation", "config": {"name": "activation_469", "trainable": false, "activation": "relu"}, "inbound_nodes": [[["batch_normalization_469", 0, 0, {}]]]}, {"name": "activation_472", "class_name": "Activation", "config": {"name": "activation_472", "trainable": false, "activation": "relu"}, "inbound_nodes": [[["batch_normalization_472", 0, 0, {}]]]}, {"name": "block35_9_mixed", "class_name": "Concatenate", "config": {"name": "block35_9_mixed", "trainable": false, "axis": 3}, "inbound_nodes": [[["activation_467", 0, 0, {}], ["activation_469", 0, 0, {}], ["activation_472", 0, 0, {}]]]}, {"name": "block35_9_conv", "class_name": "Conv2D", "config": {"name": "block35_9_conv", "trainable": false, "filters": 320, "kernel_size": [1, 1], "strides": [1, 1], "padding": "same", "data_format": "channels_last", "dilation_rate": [1, 1], "activation": "linear", "use_bias": true, "kernel_initializer": {"class_name": "VarianceScaling", "config": {"scale": 1.0, "mode": "fan_avg", "distribution": "uniform", "seed": null}}, "bias_initializer": {"class_name": "Zeros", "config": {}}, "kernel_regularizer": null, "bias_regularizer": null, "activity_regularizer": null, "kernel_constraint": null, "bias_constraint": null}, "inbound_nodes": [[["block35_9_mixed", 0, 0, {}]]]}, {"name": "block35_9", "class_name": "Lambda", "config": {"name": "block35_9", "trainable": false, "function": ["4wIAAAAAAAAAAgAAAAMAAABTAAAAcxQAAAB8AGQBGQB8AGQCGQB8ARQAFwBTACkDTukAAAAA6QEA\nAACpACkC2gZpbnB1dHPaBXNjYWxlcgMAAAByAwAAAPpnL1VzZXJzL3Nlby1iLy52aXJ0dWFsZW52\ncy9wbGFpZDM3L2xpYi9weXRob24zLjcvc2l0ZS1wYWNrYWdlcy9rZXJhc19hcHBsaWNhdGlvbnMv\naW5jZXB0aW9uX3Jlc25ldF92Mi5wedoIPGxhbWJkYT6oAAAA8wAAAAA=\n", null, null], "function_type": "lambda", "output_shape": [80, 80, 320], "output_shape_type": "raw", "arguments": {"scale": 0.17}}, "inbound_nodes": [[["block35_8_ac", 0, 0, {}], ["block35_9_conv", 0, 0, {}]]]}, {"name": "block35_9_ac", "class_name": "Activation", "config": {"name": "block35_9_ac", "trainable": false, "activation": "relu"}, "inbound_nodes": [[["block35_9", 0, 0, {}]]]}, {"name": "conv2d_476", "class_name": "Conv2D", "config": {"name": "conv2d_476", "trainable": false, "filters": 32, "kernel_size": [1, 1], "strides": [1, 1], "padding": "same", "data_format": "channels_last", "dilation_rate": [1, 1], "activation": "linear", "use_bias": false, "kernel_initializer": {"class_name": "VarianceScaling", "config": {"scale": 1.0, "mode": "fan_avg", "distribution": "uniform", "seed": null}}, "bias_initializer": {"class_name": "Zeros", "config": {}}, "kernel_regularizer": null, "bias_regularizer": null, "activity_regularizer": null, "kernel_constraint": null, "bias_constraint": null}, "inbound_nodes": [[["block35_9_ac", 0, 0, {}]]]}, {"name": "batch_normalization_476", "class_name": "BatchNormalization", "config": {"name": "batch_normalization_476", "trainable": false, "axis": 3, "momentum": 0.99, "epsilon": 0.001, "center": true, "scale": false, "beta_initializer": {"class_name": "Zeros", "config": {}}, "gamma_initializer": {"class_name": "Ones", "config": {}}, "moving_mean_initializer": {"class_name": "Zeros", "config": {}}, "moving_variance_initializer": {"class_name": "Ones", "config": {}}, "beta_regularizer": null, "gamma_regularizer": null, "beta_constraint": null, "gamma_constraint": null}, "inbound_nodes": [[["conv2d_476", 0, 0, {}]]]}, {"name": "activation_476", "class_name": "Activation", "config": {"name": "activation_476", "trainable": false, "activation": "relu"}, "inbound_nodes": [[["batch_normalization_476", 0, 0, {}]]]}, {"name": "conv2d_474", "class_name": "Conv2D", "config": {"name": "conv2d_474", "trainable": false, "filters": 32, "kernel_size": [1, 1], "strides": [1, 1], "padding": "same", "data_format": "channels_last", "dilation_rate": [1, 1], "activation": "linear", "use_bias": false, "kernel_initializer": {"class_name": "VarianceScaling", "config": {"scale": 1.0, "mode": "fan_avg", "distribution": "uniform", "seed": null}}, "bias_initializer": {"class_name": "Zeros", "config": {}}, "kernel_regularizer": null, "bias_regularizer": null, "activity_regularizer": null, "kernel_constraint": null, "bias_constraint": null}, "inbound_nodes": [[["block35_9_ac", 0, 0, {}]]]}, {"name": "conv2d_477", "class_name": "Conv2D", "config": {"name": "conv2d_477", "trainable": false, "filters": 48, "kernel_size": [3, 3], "strides": [1, 1], "padding": "same", "data_format": "channels_last", "dilation_rate": [1, 1], "activation": "linear", "use_bias": false, "kernel_initializer": {"class_name": "VarianceScaling", "config": {"scale": 1.0, "mode": "fan_avg", "distribution": "uniform", "seed": null}}, "bias_initializer": {"class_name": "Zeros", "config": {}}, "kernel_regularizer": null, "bias_regularizer": null, "activity_regularizer": null, "kernel_constraint": null, "bias_constraint": null}, "inbound_nodes": [[["activation_476", 0, 0, {}]]]}, {"name": "batch_normalization_474", "class_name": "BatchNormalization", "config": {"name": "batch_normalization_474", "trainable": false, "axis": 3, "momentum": 0.99, "epsilon": 0.001, "center": true, "scale": false, "beta_initializer": {"class_name": "Zeros", "config": {}}, "gamma_initializer": {"class_name": "Ones", "config": {}}, "moving_mean_initializer": {"class_name": "Zeros", "config": {}}, "moving_variance_initializer": {"class_name": "Ones", "config": {}}, "beta_regularizer": null, "gamma_regularizer": null, "beta_constraint": null, "gamma_constraint": null}, "inbound_nodes": [[["conv2d_474", 0, 0, {}]]]}, {"name": "batch_normalization_477", "class_name": "BatchNormalization", "config": {"name": "batch_normalization_477", "trainable": false, "axis": 3, "momentum": 0.99, "epsilon": 0.001, "center": true, "scale": false, "beta_initializer": {"class_name": "Zeros", "config": {}}, "gamma_initializer": {"class_name": "Ones", "config": {}}, "moving_mean_initializer": {"class_name": "Zeros", "config": {}}, "moving_variance_initializer": {"class_name": "Ones", "config": {}}, "beta_regularizer": null, "gamma_regularizer": null, "beta_constraint": null, "gamma_constraint": null}, "inbound_nodes": [[["conv2d_477", 0, 0, {}]]]}, {"name": "activation_474", "class_name": "Activation", "config": {"name": "activation_474", "trainable": false, "activation": "relu"}, "inbound_nodes": [[["batch_normalization_474", 0, 0, {}]]]}, {"name": "activation_477", "class_name": "Activation", "config": {"name": "activation_477", "trainable": false, "activation": "relu"}, "inbound_nodes": [[["batch_normalization_477", 0, 0, {}]]]}, {"name": "conv2d_473", "class_name": "Conv2D", "config": {"name": "conv2d_473", "trainable": false, "filters": 32, "kernel_size": [1, 1], "strides": [1, 1], "padding": "same", "data_format": "channels_last", "dilation_rate": [1, 1], "activation": "linear", "use_bias": false, "kernel_initializer": {"class_name": "VarianceScaling", "config": {"scale": 1.0, "mode": "fan_avg", "distribution": "uniform", "seed": null}}, "bias_initializer": {"class_name": "Zeros", "config": {}}, "kernel_regularizer": null, "bias_regularizer": null, "activity_regularizer": null, "kernel_constraint": null, "bias_constraint": null}, "inbound_nodes": [[["block35_9_ac", 0, 0, {}]]]}, {"name": "conv2d_475", "class_name": "Conv2D", "config": {"name": "conv2d_475", "trainable": false, "filters": 32, "kernel_size": [3, 3], "strides": [1, 1], "padding": "same", "data_format": "channels_last", "dilation_rate": [1, 1], "activation": "linear", "use_bias": false, "kernel_initializer": {"class_name": "VarianceScaling", "config": {"scale": 1.0, "mode": "fan_avg", "distribution": "uniform", "seed": null}}, "bias_initializer": {"class_name": "Zeros", "config": {}}, "kernel_regularizer": null, "bias_regularizer": null, "activity_regularizer": null, "kernel_constraint": null, "bias_constraint": null}, "inbound_nodes": [[["activation_474", 0, 0, {}]]]}, {"name": "conv2d_478", "class_name": "Conv2D", "config": {"name": "conv2d_478", "trainable": false, "filters": 64, "kernel_size": [3, 3], "strides": [1, 1], "padding": "same", "data_format": "channels_last", "dilation_rate": [1, 1], "activation": "linear", "use_bias": false, "kernel_initializer": {"class_name": "VarianceScaling", "config": {"scale": 1.0, "mode": "fan_avg", "distribution": "uniform", "seed": null}}, "bias_initializer": {"class_name": "Zeros", "config": {}}, "kernel_regularizer": null, "bias_regularizer": null, "activity_regularizer": null, "kernel_constraint": null, "bias_constraint": null}, "inbound_nodes": [[["activation_477", 0, 0, {}]]]}, {"name": "batch_normalization_473", "class_name": "BatchNormalization", "config": {"name": "batch_normalization_473", "trainable": false, "axis": 3, "momentum": 0.99, "epsilon": 0.001, "center": true, "scale": false, "beta_initializer": {"class_name": "Zeros", "config": {}}, "gamma_initializer": {"class_name": "Ones", "config": {}}, "moving_mean_initializer": {"class_name": "Zeros", "config": {}}, "moving_variance_initializer": {"class_name": "Ones", "config": {}}, "beta_regularizer": null, "gamma_regularizer": null, "beta_constraint": null, "gamma_constraint": null}, "inbound_nodes": [[["conv2d_473", 0, 0, {}]]]}, {"name": "batch_normalization_475", "class_name": "BatchNormalization", "config": {"name": "batch_normalization_475", "trainable": false, "axis": 3, "momentum": 0.99, "epsilon": 0.001, "center": true, "scale": false, "beta_initializer": {"class_name": "Zeros", "config": {}}, "gamma_initializer": {"class_name": "Ones", "config": {}}, "moving_mean_initializer": {"class_name": "Zeros", "config": {}}, "moving_variance_initializer": {"class_name": "Ones", "config": {}}, "beta_regularizer": null, "gamma_regularizer": null, "beta_constraint": null, "gamma_constraint": null}, "inbound_nodes": [[["conv2d_475", 0, 0, {}]]]}, {"name": "batch_normalization_478", "class_name": "BatchNormalization", "config": {"name": "batch_normalization_478", "trainable": false, "axis": 3, "momentum": 0.99, "epsilon": 0.001, "center": true, "scale": false, "beta_initializer": {"class_name": "Zeros", "config": {}}, "gamma_initializer": {"class_name": "Ones", "config": {}}, "moving_mean_initializer": {"class_name": "Zeros", "config": {}}, "moving_variance_initializer": {"class_name": "Ones", "config": {}}, "beta_regularizer": null, "gamma_regularizer": null, "beta_constraint": null, "gamma_constraint": null}, "inbound_nodes": [[["conv2d_478", 0, 0, {}]]]}, {"name": "activation_473", "class_name": "Activation", "config": {"name": "activation_473", "trainable": false, "activation": "relu"}, "inbound_nodes": [[["batch_normalization_473", 0, 0, {}]]]}, {"name": "activation_475", "class_name": "Activation", "config": {"name": "activation_475", "trainable": false, "activation": "relu"}, "inbound_nodes": [[["batch_normalization_475", 0, 0, {}]]]}, {"name": "activation_478", "class_name": "Activation", "config": {"name": "activation_478", "trainable": false, "activation": "relu"}, "inbound_nodes": [[["batch_normalization_478", 0, 0, {}]]]}, {"name": "block35_10_mixed", "class_name": "Concatenate", "config": {"name": "block35_10_mixed", "trainable": false, "axis": 3}, "inbound_nodes": [[["activation_473", 0, 0, {}], ["activation_475", 0, 0, {}], ["activation_478", 0, 0, {}]]]}, {"name": "block35_10_conv", "class_name": "Conv2D", "config": {"name": "block35_10_conv", "trainable": false, "filters": 320, "kernel_size": [1, 1], "strides": [1, 1], "padding": "same", "data_format": "channels_last", "dilation_rate": [1, 1], "activation": "linear", "use_bias": true, "kernel_initializer": {"class_name": "VarianceScaling", "config": {"scale": 1.0, "mode": "fan_avg", "distribution": "uniform", "seed": null}}, "bias_initializer": {"class_name": "Zeros", "config": {}}, "kernel_regularizer": null, "bias_regularizer": null, "activity_regularizer": null, "kernel_constraint": null, "bias_constraint": null}, "inbound_nodes": [[["block35_10_mixed", 0, 0, {}]]]}, {"name": "block35_10", "class_name": "Lambda", "config": {"name": "block35_10", "trainable": false, "function": ["4wIAAAAAAAAAAgAAAAMAAABTAAAAcxQAAAB8AGQBGQB8AGQCGQB8ARQAFwBTACkDTukAAAAA6QEA\nAACpACkC2gZpbnB1dHPaBXNjYWxlcgMAAAByAwAAAPpnL1VzZXJzL3Nlby1iLy52aXJ0dWFsZW52\ncy9wbGFpZDM3L2xpYi9weXRob24zLjcvc2l0ZS1wYWNrYWdlcy9rZXJhc19hcHBsaWNhdGlvbnMv\naW5jZXB0aW9uX3Jlc25ldF92Mi5wedoIPGxhbWJkYT6oAAAA8wAAAAA=\n", null, null], "function_type": "lambda", "output_shape": [80, 80, 320], "output_shape_type": "raw", "arguments": {"scale": 0.17}}, "inbound_nodes": [[["block35_9_ac", 0, 0, {}], ["block35_10_conv", 0, 0, {}]]]}, {"name": "block35_10_ac", "class_name": "Activation", "config": {"name": "block35_10_ac", "trainable": false, "activation": "relu"}, "inbound_nodes": [[["block35_10", 0, 0, {}]]]}, {"name": "conv2d_480", "class_name": "Conv2D", "config": {"name": "conv2d_480", "trainable": false, "filters": 256, "kernel_size": [1, 1], "strides": [1, 1], "padding": "same", "data_format": "channels_last", "dilation_rate": [1, 1], "activation": "linear", "use_bias": false, "kernel_initializer": {"class_name": "VarianceScaling", "config": {"scale": 1.0, "mode": "fan_avg", "distribution": "uniform", "seed": null}}, "bias_initializer": {"class_name": "Zeros", "config": {}}, "kernel_regularizer": null, "bias_regularizer": null, "activity_regularizer": null, "kernel_constraint": null, "bias_constraint": null}, "inbound_nodes": [[["block35_10_ac", 0, 0, {}]]]}, {"name": "batch_normalization_480", "class_name": "BatchNormalization", "config": {"name": "batch_normalization_480", "trainable": false, "axis": 3, "momentum": 0.99, "epsilon": 0.001, "center": true, "scale": false, "beta_initializer": {"class_name": "Zeros", "config": {}}, "gamma_initializer": {"class_name": "Ones", "config": {}}, "moving_mean_initializer": {"class_name": "Zeros", "config": {}}, "moving_variance_initializer": {"class_name": "Ones", "config": {}}, "beta_regularizer": null, "gamma_regularizer": null, "beta_constraint": null, "gamma_constraint": null}, "inbound_nodes": [[["conv2d_480", 0, 0, {}]]]}, {"name": "activation_480", "class_name": "Activation", "config": {"name": "activation_480", "trainable": false, "activation": "relu"}, "inbound_nodes": [[["batch_normalization_480", 0, 0, {}]]]}, {"name": "conv2d_481", "class_name": "Conv2D", "config": {"name": "conv2d_481", "trainable": false, "filters": 256, "kernel_size": [3, 3], "strides": [1, 1], "padding": "same", "data_format": "channels_last", "dilation_rate": [1, 1], "activation": "linear", "use_bias": false, "kernel_initializer": {"class_name": "VarianceScaling", "config": {"scale": 1.0, "mode": "fan_avg", "distribution": "uniform", "seed": null}}, "bias_initializer": {"class_name": "Zeros", "config": {}}, "kernel_regularizer": null, "bias_regularizer": null, "activity_regularizer": null, "kernel_constraint": null, "bias_constraint": null}, "inbound_nodes": [[["activation_480", 0, 0, {}]]]}, {"name": "batch_normalization_481", "class_name": "BatchNormalization", "config": {"name": "batch_normalization_481", "trainable": false, "axis": 3, "momentum": 0.99, "epsilon": 0.001, "center": true, "scale": false, "beta_initializer": {"class_name": "Zeros", "config": {}}, "gamma_initializer": {"class_name": "Ones", "config": {}}, "moving_mean_initializer": {"class_name": "Zeros", "config": {}}, "moving_variance_initializer": {"class_name": "Ones", "config": {}}, "beta_regularizer": null, "gamma_regularizer": null, "beta_constraint": null, "gamma_constraint": null}, "inbound_nodes": [[["conv2d_481", 0, 0, {}]]]}, {"name": "activation_481", "class_name": "Activation", "config": {"name": "activation_481", "trainable": false, "activation": "relu"}, "inbound_nodes": [[["batch_normalization_481", 0, 0, {}]]]}, {"name": "conv2d_479", "class_name": "Conv2D", "config": {"name": "conv2d_479", "trainable": false, "filters": 384, "kernel_size": [3, 3], "strides": [2, 2], "padding": "valid", "data_format": "channels_last", "dilation_rate": [1, 1], "activation": "linear", "use_bias": false, "kernel_initializer": {"class_name": "VarianceScaling", "config": {"scale": 1.0, "mode": "fan_avg", "distribution": "uniform", "seed": null}}, "bias_initializer": {"class_name": "Zeros", "config": {}}, "kernel_regularizer": null, "bias_regularizer": null, "activity_regularizer": null, "kernel_constraint": null, "bias_constraint": null}, "inbound_nodes": [[["block35_10_ac", 0, 0, {}]]]}, {"name": "conv2d_482", "class_name": "Conv2D", "config": {"name": "conv2d_482", "trainable": false, "filters": 384, "kernel_size": [3, 3], "strides": [2, 2], "padding": "valid", "data_format": "channels_last", "dilation_rate": [1, 1], "activation": "linear", "use_bias": false, "kernel_initializer": {"class_name": "VarianceScaling", "config": {"scale": 1.0, "mode": "fan_avg", "distribution": "uniform", "seed": null}}, "bias_initializer": {"class_name": "Zeros", "config": {}}, "kernel_regularizer": null, "bias_regularizer": null, "activity_regularizer": null, "kernel_constraint": null, "bias_constraint": null}, "inbound_nodes": [[["activation_481", 0, 0, {}]]]}, {"name": "batch_normalization_479", "class_name": "BatchNormalization", "config": {"name": "batch_normalization_479", "trainable": false, "axis": 3, "momentum": 0.99, "epsilon": 0.001, "center": true, "scale": false, "beta_initializer": {"class_name": "Zeros", "config": {}}, "gamma_initializer": {"class_name": "Ones", "config": {}}, "moving_mean_initializer": {"class_name": "Zeros", "config": {}}, "moving_variance_initializer": {"class_name": "Ones", "config": {}}, "beta_regularizer": null, "gamma_regularizer": null, "beta_constraint": null, "gamma_constraint": null}, "inbound_nodes": [[["conv2d_479", 0, 0, {}]]]}, {"name": "batch_normalization_482", "class_name": "BatchNormalization", "config": {"name": "batch_normalization_482", "trainable": false, "axis": 3, "momentum": 0.99, "epsilon": 0.001, "center": true, "scale": false, "beta_initializer": {"class_name": "Zeros", "config": {}}, "gamma_initializer": {"class_name": "Ones", "config": {}}, "moving_mean_initializer": {"class_name": "Zeros", "config": {}}, "moving_variance_initializer": {"class_name": "Ones", "config": {}}, "beta_regularizer": null, "gamma_regularizer": null, "beta_constraint": null, "gamma_constraint": null}, "inbound_nodes": [[["conv2d_482", 0, 0, {}]]]}, {"name": "activation_479", "class_name": "Activation", "config": {"name": "activation_479", "trainable": false, "activation": "relu"}, "inbound_nodes": [[["batch_normalization_479", 0, 0, {}]]]}, {"name": "activation_482", "class_name": "Activation", "config": {"name": "activation_482", "trainable": false, "activation": "relu"}, "inbound_nodes": [[["batch_normalization_482", 0, 0, {}]]]}, {"name": "max_pooling2d_11", "class_name": "MaxPooling2D", "config": {"name": "max_pooling2d_11", "trainable": false, "pool_size": [3, 3], "padding": "valid", "strides": [2, 2], "data_format": "channels_last"}, "inbound_nodes": [[["block35_10_ac", 0, 0, {}]]]}, {"name": "mixed_6a", "class_name": "Concatenate", "config": {"name": "mixed_6a", "trainable": false, "axis": 3}, "inbound_nodes": [[["activation_479", 0, 0, {}], ["activation_482", 0, 0, {}], ["max_pooling2d_11", 0, 0, {}]]]}, {"name": "conv2d_484", "class_name": "Conv2D", "config": {"name": "conv2d_484", "trainable": false, "filters": 128, "kernel_size": [1, 1], "strides": [1, 1], "padding": "same", "data_format": "channels_last", "dilation_rate": [1, 1], "activation": "linear", "use_bias": false, "kernel_initializer": {"class_name": "VarianceScaling", "config": {"scale": 1.0, "mode": "fan_avg", "distribution": "uniform", "seed": null}}, "bias_initializer": {"class_name": "Zeros", "config": {}}, "kernel_regularizer": null, "bias_regularizer": null, "activity_regularizer": null, "kernel_constraint": null, "bias_constraint": null}, "inbound_nodes": [[["mixed_6a", 0, 0, {}]]]}, {"name": "batch_normalization_484", "class_name": "BatchNormalization", "config": {"name": "batch_normalization_484", "trainable": false, "axis": 3, "momentum": 0.99, "epsilon": 0.001, "center": true, "scale": false, "beta_initializer": {"class_name": "Zeros", "config": {}}, "gamma_initializer": {"class_name": "Ones", "config": {}}, "moving_mean_initializer": {"class_name": "Zeros", "config": {}}, "moving_variance_initializer": {"class_name": "Ones", "config": {}}, "beta_regularizer": null, "gamma_regularizer": null, "beta_constraint": null, "gamma_constraint": null}, "inbound_nodes": [[["conv2d_484", 0, 0, {}]]]}, {"name": "activation_484", "class_name": "Activation", "config": {"name": "activation_484", "trainable": false, "activation": "relu"}, "inbound_nodes": [[["batch_normalization_484", 0, 0, {}]]]}, {"name": "conv2d_485", "class_name": "Conv2D", "config": {"name": "conv2d_485", "trainable": false, "filters": 160, "kernel_size": [1, 7], "strides": [1, 1], "padding": "same", "data_format": "channels_last", "dilation_rate": [1, 1], "activation": "linear", "use_bias": false, "kernel_initializer": {"class_name": "VarianceScaling", "config": {"scale": 1.0, "mode": "fan_avg", "distribution": "uniform", "seed": null}}, "bias_initializer": {"class_name": "Zeros", "config": {}}, "kernel_regularizer": null, "bias_regularizer": null, "activity_regularizer": null, "kernel_constraint": null, "bias_constraint": null}, "inbound_nodes": [[["activation_484", 0, 0, {}]]]}, {"name": "batch_normalization_485", "class_name": "BatchNormalization", "config": {"name": "batch_normalization_485", "trainable": false, "axis": 3, "momentum": 0.99, "epsilon": 0.001, "center": true, "scale": false, "beta_initializer": {"class_name": "Zeros", "config": {}}, "gamma_initializer": {"class_name": "Ones", "config": {}}, "moving_mean_initializer": {"class_name": "Zeros", "config": {}}, "moving_variance_initializer": {"class_name": "Ones", "config": {}}, "beta_regularizer": null, "gamma_regularizer": null, "beta_constraint": null, "gamma_constraint": null}, "inbound_nodes": [[["conv2d_485", 0, 0, {}]]]}, {"name": "activation_485", "class_name": "Activation", "config": {"name": "activation_485", "trainable": false, "activation": "relu"}, "inbound_nodes": [[["batch_normalization_485", 0, 0, {}]]]}, {"name": "conv2d_483", "class_name": "Conv2D", "config": {"name": "conv2d_483", "trainable": false, "filters": 192, "kernel_size": [1, 1], "strides": [1, 1], "padding": "same", "data_format": "channels_last", "dilation_rate": [1, 1], "activation": "linear", "use_bias": false, "kernel_initializer": {"class_name": "VarianceScaling", "config": {"scale": 1.0, "mode": "fan_avg", "distribution": "uniform", "seed": null}}, "bias_initializer": {"class_name": "Zeros", "config": {}}, "kernel_regularizer": null, "bias_regularizer": null, "activity_regularizer": null, "kernel_constraint": null, "bias_constraint": null}, "inbound_nodes": [[["mixed_6a", 0, 0, {}]]]}, {"name": "conv2d_486", "class_name": "Conv2D", "config": {"name": "conv2d_486", "trainable": false, "filters": 192, "kernel_size": [7, 1], "strides": [1, 1], "padding": "same", "data_format": "channels_last", "dilation_rate": [1, 1], "activation": "linear", "use_bias": false, "kernel_initializer": {"class_name": "VarianceScaling", "config": {"scale": 1.0, "mode": "fan_avg", "distribution": "uniform", "seed": null}}, "bias_initializer": {"class_name": "Zeros", "config": {}}, "kernel_regularizer": null, "bias_regularizer": null, "activity_regularizer": null, "kernel_constraint": null, "bias_constraint": null}, "inbound_nodes": [[["activation_485", 0, 0, {}]]]}, {"name": "batch_normalization_483", "class_name": "BatchNormalization", "config": {"name": "batch_normalization_483", "trainable": false, "axis": 3, "momentum": 0.99, "epsilon": 0.001, "center": true, "scale": false, "beta_initializer": {"class_name": "Zeros", "config": {}}, "gamma_initializer": {"class_name": "Ones", "config": {}}, "moving_mean_initializer": {"class_name": "Zeros", "config": {}}, "moving_variance_initializer": {"class_name": "Ones", "config": {}}, "beta_regularizer": null, "gamma_regularizer": null, "beta_constraint": null, "gamma_constraint": null}, "inbound_nodes": [[["conv2d_483", 0, 0, {}]]]}, {"name": "batch_normalization_486", "class_name": "BatchNormalization", "config": {"name": "batch_normalization_486", "trainable": false, "axis": 3, "momentum": 0.99, "epsilon": 0.001, "center": true, "scale": false, "beta_initializer": {"class_name": "Zeros", "config": {}}, "gamma_initializer": {"class_name": "Ones", "config": {}}, "moving_mean_initializer": {"class_name": "Zeros", "config": {}}, "moving_variance_initializer": {"class_name": "Ones", "config": {}}, "beta_regularizer": null, "gamma_regularizer": null, "beta_constraint": null, "gamma_constraint": null}, "inbound_nodes": [[["conv2d_486", 0, 0, {}]]]}, {"name": "activation_483", "class_name": "Activation", "config": {"name": "activation_483", "trainable": false, "activation": "relu"}, "inbound_nodes": [[["batch_normalization_483", 0, 0, {}]]]}, {"name": "activation_486", "class_name": "Activation", "config": {"name": "activation_486", "trainable": false, "activation": "relu"}, "inbound_nodes": [[["batch_normalization_486", 0, 0, {}]]]}, {"name": "block17_1_mixed", "class_name": "Concatenate", "config": {"name": "block17_1_mixed", "trainable": false, "axis": 3}, "inbound_nodes": [[["activation_483", 0, 0, {}], ["activation_486", 0, 0, {}]]]}, {"name": "block17_1_conv", "class_name": "Conv2D", "config": {"name": "block17_1_conv", "trainable": false, "filters": 1088, "kernel_size": [1, 1], "strides": [1, 1], "padding": "same", "data_format": "channels_last", "dilation_rate": [1, 1], "activation": "linear", "use_bias": true, "kernel_initializer": {"class_name": "VarianceScaling", "config": {"scale": 1.0, "mode": "fan_avg", "distribution": "uniform", "seed": null}}, "bias_initializer": {"class_name": "Zeros", "config": {}}, "kernel_regularizer": null, "bias_regularizer": null, "activity_regularizer": null, "kernel_constraint": null, "bias_constraint": null}, "inbound_nodes": [[["block17_1_mixed", 0, 0, {}]]]}, {"name": "block17_1", "class_name": "Lambda", "config": {"name": "block17_1", "trainable": false, "function": ["4wIAAAAAAAAAAgAAAAMAAABTAAAAcxQAAAB8AGQBGQB8AGQCGQB8ARQAFwBTACkDTukAAAAA6QEA\nAACpACkC2gZpbnB1dHPaBXNjYWxlcgMAAAByAwAAAPpnL1VzZXJzL3Nlby1iLy52aXJ0dWFsZW52\ncy9wbGFpZDM3L2xpYi9weXRob24zLjcvc2l0ZS1wYWNrYWdlcy9rZXJhc19hcHBsaWNhdGlvbnMv\naW5jZXB0aW9uX3Jlc25ldF92Mi5wedoIPGxhbWJkYT6oAAAA8wAAAAA=\n", null, null], "function_type": "lambda", "output_shape": [39, 39, 1088], "output_shape_type": "raw", "arguments": {"scale": 0.1}}, "inbound_nodes": [[["mixed_6a", 0, 0, {}], ["block17_1_conv", 0, 0, {}]]]}, {"name": "block17_1_ac", "class_name": "Activation", "config": {"name": "block17_1_ac", "trainable": false, "activation": "relu"}, "inbound_nodes": [[["block17_1", 0, 0, {}]]]}, {"name": "conv2d_488", "class_name": "Conv2D", "config": {"name": "conv2d_488", "trainable": false, "filters": 128, "kernel_size": [1, 1], "strides": [1, 1], "padding": "same", "data_format": "channels_last", "dilation_rate": [1, 1], "activation": "linear", "use_bias": false, "kernel_initializer": {"class_name": "VarianceScaling", "config": {"scale": 1.0, "mode": "fan_avg", "distribution": "uniform", "seed": null}}, "bias_initializer": {"class_name": "Zeros", "config": {}}, "kernel_regularizer": null, "bias_regularizer": null, "activity_regularizer": null, "kernel_constraint": null, "bias_constraint": null}, "inbound_nodes": [[["block17_1_ac", 0, 0, {}]]]}, {"name": "batch_normalization_488", "class_name": "BatchNormalization", "config": {"name": "batch_normalization_488", "trainable": false, "axis": 3, "momentum": 0.99, "epsilon": 0.001, "center": true, "scale": false, "beta_initializer": {"class_name": "Zeros", "config": {}}, "gamma_initializer": {"class_name": "Ones", "config": {}}, "moving_mean_initializer": {"class_name": "Zeros", "config": {}}, "moving_variance_initializer": {"class_name": "Ones", "config": {}}, "beta_regularizer": null, "gamma_regularizer": null, "beta_constraint": null, "gamma_constraint": null}, "inbound_nodes": [[["conv2d_488", 0, 0, {}]]]}, {"name": "activation_488", "class_name": "Activation", "config": {"name": "activation_488", "trainable": false, "activation": "relu"}, "inbound_nodes": [[["batch_normalization_488", 0, 0, {}]]]}, {"name": "conv2d_489", "class_name": "Conv2D", "config": {"name": "conv2d_489", "trainable": false, "filters": 160, "kernel_size": [1, 7], "strides": [1, 1], "padding": "same", "data_format": "channels_last", "dilation_rate": [1, 1], "activation": "linear", "use_bias": false, "kernel_initializer": {"class_name": "VarianceScaling", "config": {"scale": 1.0, "mode": "fan_avg", "distribution": "uniform", "seed": null}}, "bias_initializer": {"class_name": "Zeros", "config": {}}, "kernel_regularizer": null, "bias_regularizer": null, "activity_regularizer": null, "kernel_constraint": null, "bias_constraint": null}, "inbound_nodes": [[["activation_488", 0, 0, {}]]]}, {"name": "batch_normalization_489", "class_name": "BatchNormalization", "config": {"name": "batch_normalization_489", "trainable": false, "axis": 3, "momentum": 0.99, "epsilon": 0.001, "center": true, "scale": false, "beta_initializer": {"class_name": "Zeros", "config": {}}, "gamma_initializer": {"class_name": "Ones", "config": {}}, "moving_mean_initializer": {"class_name": "Zeros", "config": {}}, "moving_variance_initializer": {"class_name": "Ones", "config": {}}, "beta_regularizer": null, "gamma_regularizer": null, "beta_constraint": null, "gamma_constraint": null}, "inbound_nodes": [[["conv2d_489", 0, 0, {}]]]}, {"name": "activation_489", "class_name": "Activation", "config": {"name": "activation_489", "trainable": false, "activation": "relu"}, "inbound_nodes": [[["batch_normalization_489", 0, 0, {}]]]}, {"name": "conv2d_487", "class_name": "Conv2D", "config": {"name": "conv2d_487", "trainable": false, "filters": 192, "kernel_size": [1, 1], "strides": [1, 1], "padding": "same", "data_format": "channels_last", "dilation_rate": [1, 1], "activation": "linear", "use_bias": false, "kernel_initializer": {"class_name": "VarianceScaling", "config": {"scale": 1.0, "mode": "fan_avg", "distribution": "uniform", "seed": null}}, "bias_initializer": {"class_name": "Zeros", "config": {}}, "kernel_regularizer": null, "bias_regularizer": null, "activity_regularizer": null, "kernel_constraint": null, "bias_constraint": null}, "inbound_nodes": [[["block17_1_ac", 0, 0, {}]]]}, {"name": "conv2d_490", "class_name": "Conv2D", "config": {"name": "conv2d_490", "trainable": false, "filters": 192, "kernel_size": [7, 1], "strides": [1, 1], "padding": "same", "data_format": "channels_last", "dilation_rate": [1, 1], "activation": "linear", "use_bias": false, "kernel_initializer": {"class_name": "VarianceScaling", "config": {"scale": 1.0, "mode": "fan_avg", "distribution": "uniform", "seed": null}}, "bias_initializer": {"class_name": "Zeros", "config": {}}, "kernel_regularizer": null, "bias_regularizer": null, "activity_regularizer": null, "kernel_constraint": null, "bias_constraint": null}, "inbound_nodes": [[["activation_489", 0, 0, {}]]]}, {"name": "batch_normalization_487", "class_name": "BatchNormalization", "config": {"name": "batch_normalization_487", "trainable": false, "axis": 3, "momentum": 0.99, "epsilon": 0.001, "center": true, "scale": false, "beta_initializer": {"class_name": "Zeros", "config": {}}, "gamma_initializer": {"class_name": "Ones", "config": {}}, "moving_mean_initializer": {"class_name": "Zeros", "config": {}}, "moving_variance_initializer": {"class_name": "Ones", "config": {}}, "beta_regularizer": null, "gamma_regularizer": null, "beta_constraint": null, "gamma_constraint": null}, "inbound_nodes": [[["conv2d_487", 0, 0, {}]]]}, {"name": "batch_normalization_490", "class_name": "BatchNormalization", "config": {"name": "batch_normalization_490", "trainable": false, "axis": 3, "momentum": 0.99, "epsilon": 0.001, "center": true, "scale": false, "beta_initializer": {"class_name": "Zeros", "config": {}}, "gamma_initializer": {"class_name": "Ones", "config": {}}, "moving_mean_initializer": {"class_name": "Zeros", "config": {}}, "moving_variance_initializer": {"class_name": "Ones", "config": {}}, "beta_regularizer": null, "gamma_regularizer": null, "beta_constraint": null, "gamma_constraint": null}, "inbound_nodes": [[["conv2d_490", 0, 0, {}]]]}, {"name": "activation_487", "class_name": "Activation", "config": {"name": "activation_487", "trainable": false, "activation": "relu"}, "inbound_nodes": [[["batch_normalization_487", 0, 0, {}]]]}, {"name": "activation_490", "class_name": "Activation", "config": {"name": "activation_490", "trainable": false, "activation": "relu"}, "inbound_nodes": [[["batch_normalization_490", 0, 0, {}]]]}, {"name": "block17_2_mixed", "class_name": "Concatenate", "config": {"name": "block17_2_mixed", "trainable": false, "axis": 3}, "inbound_nodes": [[["activation_487", 0, 0, {}], ["activation_490", 0, 0, {}]]]}, {"name": "block17_2_conv", "class_name": "Conv2D", "config": {"name": "block17_2_conv", "trainable": false, "filters": 1088, "kernel_size": [1, 1], "strides": [1, 1], "padding": "same", "data_format": "channels_last", "dilation_rate": [1, 1], "activation": "linear", "use_bias": true, "kernel_initializer": {"class_name": "VarianceScaling", "config": {"scale": 1.0, "mode": "fan_avg", "distribution": "uniform", "seed": null}}, "bias_initializer": {"class_name": "Zeros", "config": {}}, "kernel_regularizer": null, "bias_regularizer": null, "activity_regularizer": null, "kernel_constraint": null, "bias_constraint": null}, "inbound_nodes": [[["block17_2_mixed", 0, 0, {}]]]}, {"name": "block17_2", "class_name": "Lambda", "config": {"name": "block17_2", "trainable": false, "function": ["4wIAAAAAAAAAAgAAAAMAAABTAAAAcxQAAAB8AGQBGQB8AGQCGQB8ARQAFwBTACkDTukAAAAA6QEA\nAACpACkC2gZpbnB1dHPaBXNjYWxlcgMAAAByAwAAAPpnL1VzZXJzL3Nlby1iLy52aXJ0dWFsZW52\ncy9wbGFpZDM3L2xpYi9weXRob24zLjcvc2l0ZS1wYWNrYWdlcy9rZXJhc19hcHBsaWNhdGlvbnMv\naW5jZXB0aW9uX3Jlc25ldF92Mi5wedoIPGxhbWJkYT6oAAAA8wAAAAA=\n", null, null], "function_type": "lambda", "output_shape": [39, 39, 1088], "output_shape_type": "raw", "arguments": {"scale": 0.1}}, "inbound_nodes": [[["block17_1_ac", 0, 0, {}], ["block17_2_conv", 0, 0, {}]]]}, {"name": "block17_2_ac", "class_name": "Activation", "config": {"name": "block17_2_ac", "trainable": false, "activation": "relu"}, "inbound_nodes": [[["block17_2", 0, 0, {}]]]}, {"name": "conv2d_492", "class_name": "Conv2D", "config": {"name": "conv2d_492", "trainable": false, "filters": 128, "kernel_size": [1, 1], "strides": [1, 1], "padding": "same", "data_format": "channels_last", "dilation_rate": [1, 1], "activation": "linear", "use_bias": false, "kernel_initializer": {"class_name": "VarianceScaling", "config": {"scale": 1.0, "mode": "fan_avg", "distribution": "uniform", "seed": null}}, "bias_initializer": {"class_name": "Zeros", "config": {}}, "kernel_regularizer": null, "bias_regularizer": null, "activity_regularizer": null, "kernel_constraint": null, "bias_constraint": null}, "inbound_nodes": [[["block17_2_ac", 0, 0, {}]]]}, {"name": "batch_normalization_492", "class_name": "BatchNormalization", "config": {"name": "batch_normalization_492", "trainable": false, "axis": 3, "momentum": 0.99, "epsilon": 0.001, "center": true, "scale": false, "beta_initializer": {"class_name": "Zeros", "config": {}}, "gamma_initializer": {"class_name": "Ones", "config": {}}, "moving_mean_initializer": {"class_name": "Zeros", "config": {}}, "moving_variance_initializer": {"class_name": "Ones", "config": {}}, "beta_regularizer": null, "gamma_regularizer": null, "beta_constraint": null, "gamma_constraint": null}, "inbound_nodes": [[["conv2d_492", 0, 0, {}]]]}, {"name": "activation_492", "class_name": "Activation", "config": {"name": "activation_492", "trainable": false, "activation": "relu"}, "inbound_nodes": [[["batch_normalization_492", 0, 0, {}]]]}, {"name": "conv2d_493", "class_name": "Conv2D", "config": {"name": "conv2d_493", "trainable": false, "filters": 160, "kernel_size": [1, 7], "strides": [1, 1], "padding": "same", "data_format": "channels_last", "dilation_rate": [1, 1], "activation": "linear", "use_bias": false, "kernel_initializer": {"class_name": "VarianceScaling", "config": {"scale": 1.0, "mode": "fan_avg", "distribution": "uniform", "seed": null}}, "bias_initializer": {"class_name": "Zeros", "config": {}}, "kernel_regularizer": null, "bias_regularizer": null, "activity_regularizer": null, "kernel_constraint": null, "bias_constraint": null}, "inbound_nodes": [[["activation_492", 0, 0, {}]]]}, {"name": "batch_normalization_493", "class_name": "BatchNormalization", "config": {"name": "batch_normalization_493", "trainable": false, "axis": 3, "momentum": 0.99, "epsilon": 0.001, "center": true, "scale": false, "beta_initializer": {"class_name": "Zeros", "config": {}}, "gamma_initializer": {"class_name": "Ones", "config": {}}, "moving_mean_initializer": {"class_name": "Zeros", "config": {}}, "moving_variance_initializer": {"class_name": "Ones", "config": {}}, "beta_regularizer": null, "gamma_regularizer": null, "beta_constraint": null, "gamma_constraint": null}, "inbound_nodes": [[["conv2d_493", 0, 0, {}]]]}, {"name": "activation_493", "class_name": "Activation", "config": {"name": "activation_493", "trainable": false, "activation": "relu"}, "inbound_nodes": [[["batch_normalization_493", 0, 0, {}]]]}, {"name": "conv2d_4…
_name": "Concatenate", "config": {"name": "block8_4_mixed", "trainable": false, "axis": 3}, "inbound_nodes": [[["activation_582", 0, 0, {}], ["activation_585", 0, 0, {}]]]}, {"name": "block8_4_conv", "class_name": "Conv2D", "config": {"name": "block8_4_conv", "trainable": false, "filters": 2080, "kernel_size": [1, 1], "strides": [1, 1], "padding": "same", "data_format": "channels_last", "dilation_rate": [1, 1], "activation": "linear", "use_bias": true, "kernel_initializer": {"class_name": "VarianceScaling", "config": {"scale": 1.0, "mode": "fan_avg", "distribution": "uniform", "seed": null}}, "bias_initializer": {"class_name": "Zeros", "config": {}}, "kernel_regularizer": null, "bias_regularizer": null, "activity_regularizer": null, "kernel_constraint": null, "bias_constraint": null}, "inbound_nodes": [[["block8_4_mixed", 0, 0, {}]]]}, {"name": "block8_4", "class_name": "Lambda", "config": {"name": "block8_4", "trainable": false, "function": ["4wIAAAAAAAAAAgAAAAMAAABTAAAAcxQAAAB8AGQBGQB8AGQCGQB8ARQAFwBTACkDTukAAAAA6QEA\nAACpACkC2gZpbnB1dHPaBXNjYWxlcgMAAAByAwAAAPpnL1VzZXJzL3Nlby1iLy52aXJ0dWFsZW52\ncy9wbGFpZDM3L2xpYi9weXRob24zLjcvc2l0ZS1wYWNrYWdlcy9rZXJhc19hcHBsaWNhdGlvbnMv\naW5jZXB0aW9uX3Jlc25ldF92Mi5wedoIPGxhbWJkYT6oAAAA8wAAAAA=\n", null, null], "function_type": "lambda", "output_shape": [19, 19, 2080], "output_shape_type": "raw", "arguments": {"scale": 0.2}}, "inbound_nodes": [[["block8_3_ac", 0, 0, {}], ["block8_4_conv", 0, 0, {}]]]}, {"name": "block8_4_ac", "class_name": "Activation", "config": {"name": "block8_4_ac", "trainable": false, "activation": "relu"}, "inbound_nodes": [[["block8_4", 0, 0, {}]]]}, {"name": "conv2d_587", "class_name": "Conv2D", "config": {"name": "conv2d_587", "trainable": false, "filters": 192, "kernel_size": [1, 1], "strides": [1, 1], "padding": "same", "data_format": "channels_last", "dilation_rate": [1, 1], "activation": "linear", "use_bias": false, "kernel_initializer": {"class_name": "VarianceScaling", "config": {"scale": 1.0, "mode": "fan_avg", "distribution": "uniform", "seed": null}}, "bias_initializer": {"class_name": "Zeros", "config": {}}, "kernel_regularizer": null, "bias_regularizer": null, "activity_regularizer": null, "kernel_constraint": null, "bias_constraint": null}, "inbound_nodes": [[["block8_4_ac", 0, 0, {}]]]}, {"name": "batch_normalization_587", "class_name": "BatchNormalization", "config": {"name": "batch_normalization_587", "trainable": false, "axis": 3, "momentum": 0.99, "epsilon": 0.001, "center": true, "scale": false, "beta_initializer": {"class_name": "Zeros", "config": {}}, "gamma_initializer": {"class_name": "Ones", "config": {}}, "moving_mean_initializer": {"class_name": "Zeros", "config": {}}, "moving_variance_initializer": {"class_name": "Ones", "config": {}}, "beta_regularizer": null, "gamma_regularizer": null, "beta_constraint": null, "gamma_constraint": null}, "inbound_nodes": [[["conv2d_587", 0, 0, {}]]]}, {"name": "activation_587", "class_name": "Activation", "config": {"name": "activation_587", "trainable": false, "activation": "relu"}, "inbound_nodes": [[["batch_normalization_587", 0, 0, {}]]]}, {"name": "conv2d_588", "class_name": "Conv2D", "config": {"name": "conv2d_588", "trainable": false, "filters": 224, "kernel_size": [1, 3], "strides": [1, 1], "padding": "same", "data_format": "channels_last", "dilation_rate": [1, 1], "activation": "linear", "use_bias": false, "kernel_initializer": {"class_name": "VarianceScaling", "config": {"scale": 1.0, "mode": "fan_avg", "distribution": "uniform", "seed": null}}, "bias_initializer": {"class_name": "Zeros", "config": {}}, "kernel_regularizer": null, "bias_regularizer": null, "activity_regularizer": null, "kernel_constraint": null, "bias_constraint": null}, "inbound_nodes": [[["activation_587", 0, 0, {}]]]}, {"name": "batch_normalization_588", "class_name": "BatchNormalization", "config": {"name": "batch_normalization_588", "trainable": false, "axis": 3, "momentum": 0.99, "epsilon": 0.001, "center": true, "scale": false, "beta_initializer": {"class_name": "Zeros", "config": {}}, "gamma_initializer": {"class_name": "Ones", "config": {}}, "moving_mean_initializer": {"class_name": "Zeros", "config": {}}, "moving_variance_initializer": {"class_name": "Ones", "config": {}}, "beta_regularizer": null, "gamma_regularizer": null, "beta_constraint": null, "gamma_constraint": null}, "inbound_nodes": [[["conv2d_588", 0, 0, {}]]]}, {"name": "activation_588", "class_name": "Activation", "config": {"name": "activation_588", "trainable": false, "activation": "relu"}, "inbound_nodes": [[["batch_normalization_588", 0, 0, {}]]]}, {"name": "conv2d_586", "class_name": "Conv2D", "config": {"name": "conv2d_586", "trainable": false, "filters": 192, "kernel_size": [1, 1], "strides": [1, 1], "padding": "same", "data_format": "channels_last", "dilation_rate": [1, 1], "activation": "linear", "use_bias": false, "kernel_initializer": {"class_name": "VarianceScaling", "config": {"scale": 1.0, "mode": "fan_avg", "distribution": "uniform", "seed": null}}, "bias_initializer": {"class_name": "Zeros", "config": {}}, "kernel_regularizer": null, "bias_regularizer": null, "activity_regularizer": null, "kernel_constraint": null, "bias_constraint": null}, "inbound_nodes": [[["block8_4_ac", 0, 0, {}]]]}, {"name": "conv2d_589", "class_name": "Conv2D", "config": {"name": "conv2d_589", "trainable": false, "filters": 256, "kernel_size": [3, 1], "strides": [1, 1], "padding": "same", "data_format": "channels_last", "dilation_rate": [1, 1], "activation": "linear", "use_bias": false, "kernel_initializer": {"class_name": "VarianceScaling", "config": {"scale": 1.0, "mode": "fan_avg", "distribution": "uniform", "seed": null}}, "bias_initializer": {"class_name": "Zeros", "config": {}}, "kernel_regularizer": null, "bias_regularizer": null, "activity_regularizer": null, "kernel_constraint": null, "bias_constraint": null}, "inbound_nodes": [[["activation_588", 0, 0, {}]]]}, {"name": "batch_normalization_586", "class_name": "BatchNormalization", "config": {"name": "batch_normalization_586", "trainable": false, "axis": 3, "momentum": 0.99, "epsilon": 0.001, "center": true, "scale": false, "beta_initializer": {"class_name": "Zeros", "config": {}}, "gamma_initializer": {"class_name": "Ones", "config": {}}, "moving_mean_initializer": {"class_name": "Zeros", "config": {}}, "moving_variance_initializer": {"class_name": "Ones", "config": {}}, "beta_regularizer": null, "gamma_regularizer": null, "beta_constraint": null, "gamma_constraint": null}, "inbound_nodes": [[["conv2d_586", 0, 0, {}]]]}, {"name": "batch_normalization_589", "class_name": "BatchNormalization", "config": {"name": "batch_normalization_589", "trainable": false, "axis": 3, "momentum": 0.99, "epsilon": 0.001, "center": true, "scale": false, "beta_initializer": {"class_name": "Zeros", "config": {}}, "gamma_initializer": {"class_name": "Ones", "config": {}}, "moving_mean_initializer": {"class_name": "Zeros", "config": {}}, "moving_variance_initializer": {"class_name": "Ones", "config": {}}, "beta_regularizer": null, "gamma_regularizer": null, "beta_constraint": null, "gamma_constraint": null}, "inbound_nodes": [[["conv2d_589", 0, 0, {}]]]}, {"name": "activation_586", "class_name": "Activation", "config": {"name": "activation_586", "trainable": false, "activation": "relu"}, "inbound_nodes": [[["batch_normalization_586", 0, 0, {}]]]}, {"name": "activation_589", "class_name": "Activation", "config": {"name": "activation_589", "trainable": false, "activation": "relu"}, "inbound_nodes": [[["batch_normalization_589", 0, 0, {}]]]}, {"name": "block8_5_mixed", "class_name": "Concatenate", "config": {"name": "block8_5_mixed", "trainable": false, "axis": 3}, "inbound_nodes": [[["activation_586", 0, 0, {}], ["activation_589", 0, 0, {}]]]}, {"name": "block8_5_conv", "class_name": "Conv2D", "config": {"name": "block8_5_conv", "trainable": false, "filters": 2080, "kernel_size": [1, 1], "strides": [1, 1], "padding": "same", "data_format": "channels_last", "dilation_rate": [1, 1], "activation": "linear", "use_bias": true, "kernel_initializer": {"class_name": "VarianceScaling", "config": {"scale": 1.0, "mode": "fan_avg", "distribution": "uniform", "seed": null}}, "bias_initializer": {"class_name": "Zeros", "config": {}}, "kernel_regularizer": null, "bias_regularizer": null, "activity_regularizer": null, "kernel_constraint": null, "bias_constraint": null}, "inbound_nodes": [[["block8_5_mixed", 0, 0, {}]]]}, {"name": "block8_5", "class_name": "Lambda", "config": {"name": "block8_5", "trainable": false, "function": ["4wIAAAAAAAAAAgAAAAMAAABTAAAAcxQAAAB8AGQBGQB8AGQCGQB8ARQAFwBTACkDTukAAAAA6QEA\nAACpACkC2gZpbnB1dHPaBXNjYWxlcgMAAAByAwAAAPpnL1VzZXJzL3Nlby1iLy52aXJ0dWFsZW52\ncy9wbGFpZDM3L2xpYi9weXRob24zLjcvc2l0ZS1wYWNrYWdlcy9rZXJhc19hcHBsaWNhdGlvbnMv\naW5jZXB0aW9uX3Jlc25ldF92Mi5wedoIPGxhbWJkYT6oAAAA8wAAAAA=\n", null, null], "function_type": "lambda", "output_shape": [19, 19, 2080], "output_shape_type": "raw", "arguments": {"scale": 0.2}}, "inbound_nodes": [[["block8_4_ac", 0, 0, {}], ["block8_5_conv", 0, 0, {}]]]}, {"name": "block8_5_ac", "class_name": "Activation", "config": {"name": "block8_5_ac", "trainable": false, "activation": "relu"}, "inbound_nodes": [[["block8_5", 0, 0, {}]]]}, {"name": "conv2d_591", "class_name": "Conv2D", "config": {"name": "conv2d_591", "trainable": false, "filters": 192, "kernel_size": [1, 1], "strides": [1, 1], "padding": "same", "data_format": "channels_last", "dilation_rate": [1, 1], "activation": "linear", "use_bias": false, "kernel_initializer": {"class_name": "VarianceScaling", "config": {"scale": 1.0, "mode": "fan_avg", "distribution": "uniform", "seed": null}}, "bias_initializer": {"class_name": "Zeros", "config": {}}, "kernel_regularizer": null, "bias_regularizer": null, "activity_regularizer": null, "kernel_constraint": null, "bias_constraint": null}, "inbound_nodes": [[["block8_5_ac", 0, 0, {}]]]}, {"name": "batch_normalization_591", "class_name": "BatchNormalization", "config": {"name": "batch_normalization_591", "trainable": false, "axis": 3, "momentum": 0.99, "epsilon": 0.001, "center": true, "scale": false, "beta_initializer": {"class_name": "Zeros", "config": {}}, "gamma_initializer": {"class_name": "Ones", "config": {}}, "moving_mean_initializer": {"class_name": "Zeros", "config": {}}, "moving_variance_initializer": {"class_name": "Ones", "config": {}}, "beta_regularizer": null, "gamma_regularizer": null, "beta_constraint": null, "gamma_constraint": null}, "inbound_nodes": [[["conv2d_591", 0, 0, {}]]]}, {"name": "activation_591", "class_name": "Activation", "config": {"name": "activation_591", "trainable": false, "activation": "relu"}, "inbound_nodes": [[["batch_normalization_591", 0, 0, {}]]]}, {"name": "conv2d_592", "class_name": "Conv2D", "config": {"name": "conv2d_592", "trainable": false, "filters": 224, "kernel_size": [1, 3], "strides": [1, 1], "padding": "same", "data_format": "channels_last", "dilation_rate": [1, 1], "activation": "linear", "use_bias": false, "kernel_initializer": {"class_name": "VarianceScaling", "config": {"scale": 1.0, "mode": "fan_avg", "distribution": "uniform", "seed": null}}, "bias_initializer": {"class_name": "Zeros", "config": {}}, "kernel_regularizer": null, "bias_regularizer": null, "activity_regularizer": null, "kernel_constraint": null, "bias_constraint": null}, "inbound_nodes": [[["activation_591", 0, 0, {}]]]}, {"name": "batch_normalization_592", "class_name": "BatchNormalization", "config": {"name": "batch_normalization_592", "trainable": false, "axis": 3, "momentum": 0.99, "epsilon": 0.001, "center": true, "scale": false, "beta_initializer": {"class_name": "Zeros", "config": {}}, "gamma_initializer": {"class_name": "Ones", "config": {}}, "moving_mean_initializer": {"class_name": "Zeros", "config": {}}, "moving_variance_initializer": {"class_name": "Ones", "config": {}}, "beta_regularizer": null, "gamma_regularizer": null, "beta_constraint": null, "gamma_constraint": null}, "inbound_nodes": [[["conv2d_592", 0, 0, {}]]]}, {"name": "activation_592", "class_name": "Activation", "config": {"name": "activation_592", "trainable": false, "activation": "relu"}, "inbound_nodes": [[["batch_normalization_592", 0, 0, {}]]]}, {"name": "conv2d_590", "class_name": "Conv2D", "config": {"name": "conv2d_590", "trainable": false, "filters": 192, "kernel_size": [1, 1], "strides": [1, 1], "padding": "same", "data_format": "channels_last", "dilation_rate": [1, 1], "activation": "linear", "use_bias": false, "kernel_initializer": {"class_name": "VarianceScaling", "config": {"scale": 1.0, "mode": "fan_avg", "distribution": "uniform", "seed": null}}, "bias_initializer": {"class_name": "Zeros", "config": {}}, "kernel_regularizer": null, "bias_regularizer": null, "activity_regularizer": null, "kernel_constraint": null, "bias_constraint": null}, "inbound_nodes": [[["block8_5_ac", 0, 0, {}]]]}, {"name": "conv2d_593", "class_name": "Conv2D", "config": {"name": "conv2d_593", "trainable": false, "filters": 256, "kernel_size": [3, 1], "strides": [1, 1], "padding": "same", "data_format": "channels_last", "dilation_rate": [1, 1], "activation": "linear", "use_bias": false, "kernel_initializer": {"class_name": "VarianceScaling", "config": {"scale": 1.0, "mode": "fan_avg", "distribution": "uniform", "seed": null}}, "bias_initializer": {"class_name": "Zeros", "config": {}}, "kernel_regularizer": null, "bias_regularizer": null, "activity_regularizer": null, "kernel_constraint": null, "bias_constraint": null}, "inbound_nodes": [[["activation_592", 0, 0, {}]]]}, {"name": "batch_normalization_590", "class_name": "BatchNormalization", "config": {"name": "batch_normalization_590", "trainable": false, "axis": 3, "momentum": 0.99, "epsilon": 0.001, "center": true, "scale": false, "beta_initializer": {"class_name": "Zeros", "config": {}}, "gamma_initializer": {"class_name": "Ones", "config": {}}, "moving_mean_initializer": {"class_name": "Zeros", "config": {}}, "moving_variance_initializer": {"class_name": "Ones", "config": {}}, "beta_regularizer": null, "gamma_regularizer": null, "beta_constraint": null, "gamma_constraint": null}, "inbound_nodes": [[["conv2d_590", 0, 0, {}]]]}, {"name": "batch_normalization_593", "class_name": "BatchNormalization", "config": {"name": "batch_normalization_593", "trainable": false, "axis": 3, "momentum": 0.99, "epsilon": 0.001, "center": true, "scale": false, "beta_initializer": {"class_name": "Zeros", "config": {}}, "gamma_initializer": {"class_name": "Ones", "config": {}}, "moving_mean_initializer": {"class_name": "Zeros", "config": {}}, "moving_variance_initializer": {"class_name": "Ones", "config": {}}, "beta_regularizer": null, "gamma_regularizer": null, "beta_constraint": null, "gamma_constraint": null}, "inbound_nodes": [[["conv2d_593", 0, 0, {}]]]}, {"name": "activation_590", "class_name": "Activation", "config": {"name": "activation_590", "trainable": false, "activation": "relu"}, "inbound_nodes": [[["batch_normalization_590", 0, 0, {}]]]}, {"name": "activation_593", "class_name": "Activation", "config": {"name": "activation_593", "trainable": false, "activation": "relu"}, "inbound_nodes": [[["batch_normalization_593", 0, 0, {}]]]}, {"name": "block8_6_mixed", "class_name": "Concatenate", "config": {"name": "block8_6_mixed", "trainable": false, "axis": 3}, "inbound_nodes": [[["activation_590", 0, 0, {}], ["activation_593", 0, 0, {}]]]}, {"name": "block8_6_conv", "class_name": "Conv2D", "config": {"name": "block8_6_conv", "trainable": false, "filters": 2080, "kernel_size": [1, 1], "strides": [1, 1], "padding": "same", "data_format": "channels_last", "dilation_rate": [1, 1], "activation": "linear", "use_bias": true, "kernel_initializer": {"class_name": "VarianceScaling", "config": {"scale": 1.0, "mode": "fan_avg", "distribution": "uniform", "seed": null}}, "bias_initializer": {"class_name": "Zeros", "config": {}}, "kernel_regularizer": null, "bias_regularizer": null, "activity_regularizer": null, "kernel_constraint": null, "bias_constraint": null}, "inbound_nodes": [[["block8_6_mixed", 0, 0, {}]]]}, {"name": "block8_6", "class_name": "Lambda", "config": {"name": "block8_6", "trainable": false, "function": ["4wIAAAAAAAAAAgAAAAMAAABTAAAAcxQAAAB8AGQBGQB8AGQCGQB8ARQAFwBTACkDTukAAAAA6QEA\nAACpACkC2gZpbnB1dHPaBXNjYWxlcgMAAAByAwAAAPpnL1VzZXJzL3Nlby1iLy52aXJ0dWFsZW52\ncy9wbGFpZDM3L2xpYi9weXRob24zLjcvc2l0ZS1wYWNrYWdlcy9rZXJhc19hcHBsaWNhdGlvbnMv\naW5jZXB0aW9uX3Jlc25ldF92Mi5wedoIPGxhbWJkYT6oAAAA8wAAAAA=\n", null, null], "function_type": "lambda", "output_shape": [19, 19, 2080], "output_shape_type": "raw", "arguments": {"scale": 0.2}}, "inbound_nodes": [[["block8_5_ac", 0, 0, {}], ["block8_6_conv", 0, 0, {}]]]}, {"name": "block8_6_ac", "class_name": "Activation", "config": {"name": "block8_6_ac", "trainable": false, "activation": "relu"}, "inbound_nodes": [[["block8_6", 0, 0, {}]]]}, {"name": "conv2d_595", "class_name": "Conv2D", "config": {"name": "conv2d_595", "trainable": false, "filters": 192, "kernel_size": [1, 1], "strides": [1, 1], "padding": "same", "data_format": "channels_last", "dilation_rate": [1, 1], "activation": "linear", "use_bias": false, "kernel_initializer": {"class_name": "VarianceScaling", "config": {"scale": 1.0, "mode": "fan_avg", "distribution": "uniform", "seed": null}}, "bias_initializer": {"class_name": "Zeros", "config": {}}, "kernel_regularizer": null, "bias_regularizer": null, "activity_regularizer": null, "kernel_constraint": null, "bias_constraint": null}, "inbound_nodes": [[["block8_6_ac", 0, 0, {}]]]}, {"name": "batch_normalization_595", "class_name": "BatchNormalization", "config": {"name": "batch_normalization_595", "trainable": false, "axis": 3, "momentum": 0.99, "epsilon": 0.001, "center": true, "scale": false, "beta_initializer": {"class_name": "Zeros", "config": {}}, "gamma_initializer": {"class_name": "Ones", "config": {}}, "moving_mean_initializer": {"class_name": "Zeros", "config": {}}, "moving_variance_initializer": {"class_name": "Ones", "config": {}}, "beta_regularizer": null, "gamma_regularizer": null, "beta_constraint": null, "gamma_constraint": null}, "inbound_nodes": [[["conv2d_595", 0, 0, {}]]]}, {"name": "activation_595", "class_name": "Activation", "config": {"name": "activation_595", "trainable": false, "activation": "relu"}, "inbound_nodes": [[["batch_normalization_595", 0, 0, {}]]]}, {"name": "conv2d_596", "class_name": "Conv2D", "config": {"name": "conv2d_596", "trainable": false, "filters": 224, "kernel_size": [1, 3], "strides": [1, 1], "padding": "same", "data_format": "channels_last", "dilation_rate": [1, 1], "activation": "linear", "use_bias": false, "kernel_initializer": {"class_name": "VarianceScaling", "config": {"scale": 1.0, "mode": "fan_avg", "distribution": "uniform", "seed": null}}, "bias_initializer": {"class_name": "Zeros", "config": {}}, "kernel_regularizer": null, "bias_regularizer": null, "activity_regularizer": null, "kernel_constraint": null, "bias_constraint": null}, "inbound_nodes": [[["activation_595", 0, 0, {}]]]}, {"name": "batch_normalization_596", "class_name": "BatchNormalization", "config": {"name": "batch_normalization_596", "trainable": false, "axis": 3, "momentum": 0.99, "epsilon": 0.001, "center": true, "scale": false, "beta_initializer": {"class_name": "Zeros", "config": {}}, "gamma_initializer": {"class_name": "Ones", "config": {}}, "moving_mean_initializer": {"class_name": "Zeros", "config": {}}, "moving_variance_initializer": {"class_name": "Ones", "config": {}}, "beta_regularizer": null, "gamma_regularizer": null, "beta_constraint": null, "gamma_constraint": null}, "inbound_nodes": [[["conv2d_596", 0, 0, {}]]]}, {"name": "activation_596", "class_name": "Activation", "config": {"name": "activation_596", "trainable": false, "activation": "relu"}, "inbound_nodes": [[["batch_normalization_596", 0, 0, {}]]]}, {"name": "conv2d_594", "class_name": "Conv2D", "config": {"name": "conv2d_594", "trainable": false, "filters": 192, "kernel_size": [1, 1], "strides": [1, 1], "padding": "same", "data_format": "channels_last", "dilation_rate": [1, 1], "activation": "linear", "use_bias": false, "kernel_initializer": {"class_name": "VarianceScaling", "config": {"scale": 1.0, "mode": "fan_avg", "distribution": "uniform", "seed": null}}, "bias_initializer": {"class_name": "Zeros", "config": {}}, "kernel_regularizer": null, "bias_regularizer": null, "activity_regularizer": null, "kernel_constraint": null, "bias_constraint": null}, "inbound_nodes": [[["block8_6_ac", 0, 0, {}]]]}, {"name": "conv2d_597", "class_name": "Conv2D", "config": {"name": "conv2d_597", "trainable": false, "filters": 256, "kernel_size": [3, 1], "strides": [1, 1], "padding": "same", "data_format": "channels_last", "dilation_rate": [1, 1], "activation": "linear", "use_bias": false, "kernel_initializer": {"class_name": "VarianceScaling", "config": {"scale": 1.0, "mode": "fan_avg", "distribution": "uniform", "seed": null}}, "bias_initializer": {"class_name": "Zeros", "config": {}}, "kernel_regularizer": null, "bias_regularizer": null, "activity_regularizer": null, "kernel_constraint": null, "bias_constraint": null}, "inbound_nodes": [[["activation_596", 0, 0, {}]]]}, {"name": "batch_normalization_594", "class_name": "BatchNormalization", "config": {"name": "batch_normalization_594", "trainable": false, "axis": 3, "momentum": 0.99, "epsilon": 0.001, "center": true, "scale": false, "beta_initializer": {"class_name": "Zeros", "config": {}}, "gamma_initializer": {"class_name": "Ones", "config": {}}, "moving_mean_initializer": {"class_name": "Zeros", "config": {}}, "moving_variance_initializer": {"class_name": "Ones", "config": {}}, "beta_regularizer": null, "gamma_regularizer": null, "beta_constraint": null, "gamma_constraint": null}, "inbound_nodes": [[["conv2d_594", 0, 0, {}]]]}, {"name": "batch_normalization_597", "class_name": "BatchNormalization", "config": {"name": "batch_normalization_597", "trainable": false, "axis": 3, "momentum": 0.99, "epsilon": 0.001, "center": true, "scale": false, "beta_initializer": {"class_name": "Zeros", "config": {}}, "gamma_initializer": {"class_name": "Ones", "config": {}}, "moving_mean_initializer": {"class_name": "Zeros", "config": {}}, "moving_variance_initializer": {"class_name": "Ones", "config": {}}, "beta_regularizer": null, "gamma_regularizer": null, "beta_constraint": null, "gamma_constraint": null}, "inbound_nodes": [[["conv2d_597", 0, 0, {}]]]}, {"name": "activation_594", "class_name": "Activation", "config": {"name": "activation_594", "trainable": false, "activation": "relu"}, "inbound_nodes": [[["batch_normalization_594", 0, 0, {}]]]}, {"name": "activation_597", "class_name": "Activation", "config": {"name": "activation_597", "trainable": false, "activation": "relu"}, "inbound_nodes": [[["batch_normalization_597", 0, 0, {}]]]}, {"name": "block8_7_mixed", "class_name": "Concatenate", "config": {"name": "block8_7_mixed", "trainable": false, "axis": 3}, "inbound_nodes": [[["activation_594", 0, 0, {}], ["activation_597", 0, 0, {}]]]}, {"name": "block8_7_conv", "class_name": "Conv2D", "config": {"name": "block8_7_conv", "trainable": false, "filters": 2080, "kernel_size": [1, 1], "strides": [1, 1], "padding": "same", "data_format": "channels_last", "dilation_rate": [1, 1], "activation": "linear", "use_bias": true, "kernel_initializer": {"class_name": "VarianceScaling", "config": {"scale": 1.0, "mode": "fan_avg", "distribution": "uniform", "seed": null}}, "bias_initializer": {"class_name": "Zeros", "config": {}}, "kernel_regularizer": null, "bias_regularizer": null, "activity_regularizer": null, "kernel_constraint": null, "bias_constraint": null}, "inbound_nodes": [[["block8_7_mixed", 0, 0, {}]]]}, {"name": "block8_7", "class_name": "Lambda", "config": {"name": "block8_7", "trainable": false, "function": ["4wIAAAAAAAAAAgAAAAMAAABTAAAAcxQAAAB8AGQBGQB8AGQCGQB8ARQAFwBTACkDTukAAAAA6QEA\nAACpACkC2gZpbnB1dHPaBXNjYWxlcgMAAAByAwAAAPpnL1VzZXJzL3Nlby1iLy52aXJ0dWFsZW52\ncy9wbGFpZDM3L2xpYi9weXRob24zLjcvc2l0ZS1wYWNrYWdlcy9rZXJhc19hcHBsaWNhdGlvbnMv\naW5jZXB0aW9uX3Jlc25ldF92Mi5wedoIPGxhbWJkYT6oAAAA8wAAAAA=\n", null, null], "function_type": "lambda", "output_shape": [19, 19, 2080], "output_shape_type": "raw", "arguments": {"scale": 0.2}}, "inbound_nodes": [[["block8_6_ac", 0, 0, {}], ["block8_7_conv", 0, 0, {}]]]}, {"name": "block8_7_ac", "class_name": "Activation", "config": {"name": "block8_7_ac", "trainable": false, "activation": "relu"}, "inbound_nodes": [[["block8_7", 0, 0, {}]]]}, {"name": "conv2d_599", "class_name": "Conv2D", "config": {"name": "conv2d_599", "trainable": false, "filters": 192, "kernel_size": [1, 1], "strides": [1, 1], "padding": "same", "data_format": "channels_last", "dilation_rate": [1, 1], "activation": "linear", "use_bias": false, "kernel_initializer": {"class_name": "VarianceScaling", "config": {"scale": 1.0, "mode": "fan_avg", "distribution": "uniform", "seed": null}}, "bias_initializer": {"class_name": "Zeros", "config": {}}, "kernel_regularizer": null, "bias_regularizer": null, "activity_regularizer": null, "kernel_constraint": null, "bias_constraint": null}, "inbound_nodes": [[["block8_7_ac", 0, 0, {}]]]}, {"name": "batch_normalization_599", "class_name": "BatchNormalization", "config": {"name": "batch_normalization_599", "trainable": false, "axis": 3, "momentum": 0.99, "epsilon": 0.001, "center": true, "scale": false, "beta_initializer": {"class_name": "Zeros", "config": {}}, "gamma_initializer": {"class_name": "Ones", "config": {}}, "moving_mean_initializer": {"class_name": "Zeros", "config": {}}, "moving_variance_initializer": {"class_name": "Ones", "config": {}}, "beta_regularizer": null, "gamma_regularizer": null, "beta_constraint": null, "gamma_constraint": null}, "inbound_nodes": [[["conv2d_599", 0, 0, {}]]]}, {"name": "activation_599", "class_name": "Activation", "config": {"name": "activation_599", "trainable": false, "activation": "relu"}, "inbound_nodes": [[["batch_normalization_599", 0, 0, {}]]]}, {"name": "conv2d_600", "class_name": "Conv2D", "config": {"name": "conv2d_600", "trainable": false, "filters": 224, "kernel_size": [1, 3], "strides": [1, 1], "padding": "same", "data_format": "channels_last", "dilation_rate": [1, 1], "activation": "linear", "use_bias": false, "kernel_initializer": {"class_name": "VarianceScaling", "config": {"scale": 1.0, "mode": "fan_avg", "distribution": "uniform", "seed": null}}, "bias_initializer": {"class_name": "Zeros", "config": {}}, "kernel_regularizer": null, "bias_regularizer": null, "activity_regularizer": null, "kernel_constraint": null, "bias_constraint": null}, "inbound_nodes": [[["activation_599", 0, 0, {}]]]}, {"name": "batch_normalization_600", "class_name": "BatchNormalization", "config": {"name": "batch_normalization_600", "trainable": false, "axis": 3, "momentum": 0.99, "epsilon": 0.001, "center": true, "scale": false, "beta_initializer": {"class_name": "Zeros", "config": {}}, "gamma_initializer": {"class_name": "Ones", "config": {}}, "moving_mean_initializer": {"class_name": "Zeros", "config": {}}, "moving_variance_initializer": {"class_name": "Ones", "config": {}}, "beta_regularizer": null, "gamma_regularizer": null, "beta_constraint": null, "gamma_constraint": null}, "inbound_nodes": [[["conv2d_600", 0, 0, {}]]]}, {"name": "activation_600", "class_name": "Activation", "config": {"name": "activation_600", "trainable": false, "activation": "relu"}, "inbound_nodes": [[["batch_normalization_600", 0, 0, {}]]]}, {"name": "conv2d_598", "class_name": "Conv2D", "config": {"name": "conv2d_598", "trainable": false, "filters": 192, "kernel_size": [1, 1], "strides": [1, 1], "padding": "same", "data_format": "channels_last", "dilation_rate": [1, 1], "activation": "linear", "use_bias": false, "kernel_initializer": {"class_name": "VarianceScaling", "config": {"scale": 1.0, "mode": "fan_avg", "distribution": "uniform", "seed": null}}, "bias_initializer": {"class_name": "Zeros", "config": {}}, "kernel_regularizer": null, "bias_regularizer": null, "activity_regularizer": null, "kernel_constraint": null, "bias_constraint": null}, "inbound_nodes": [[["block8_7_ac", 0, 0, {}]]]}, {"name": "conv2d_601", "class_name": "Conv2D", "config": {"name": "conv2d_601", "trainable": false, "filters": 256, "kernel_size": [3, 1], "strides": [1, 1], "padding": "same", "data_format": "channels_last", "dilation_rate": [1, 1], "activation": "linear", "use_bias": false, "kernel_initializer": {"class_name": "VarianceScaling", "config": {"scale": 1.0, "mode": "fan_avg", "distribution": "uniform", "seed": null}}, "bias_initializer": {"class_name": "Zeros", "config": {}}, "kernel_regularizer": null, "bias_regularizer": null, "activity_regularizer": null, "kernel_constraint": null, "bias_constraint": null}, "inbound_nodes": [[["activation_600", 0, 0, {}]]]}, {"name": "batch_normalization_598", "class_name": "BatchNormalization", "config": {"name": "batch_normalization_598", "trainable": false, "axis": 3, "momentum": 0.99, "epsilon": 0.001, "center": true, "scale": false, "beta_initializer": {"class_name": "Zeros", "config": {}}, "gamma_initializer": {"class_name": "Ones", "config": {}}, "moving_mean_initializer": {"class_name": "Zeros", "config": {}}, "moving_variance_initializer": {"class_name": "Ones", "config": {}}, "beta_regularizer": null, "gamma_regularizer": null, "beta_constraint": null, "gamma_constraint": null}, "inbound_nodes": [[["conv2d_598", 0, 0, {}]]]}, {"name": "batch_normalization_601", "class_name": "BatchNormalization", "config": {"name": "batch_normalization_601", "trainable": false, "axis": 3, "momentum": 0.99, "epsilon": 0.001, "center": true, "scale": false, "beta_initializer": {"class_name": "Zeros", "config": {}}, "gamma_initializer": {"class_name": "Ones", "config": {}}, "moving_mean_initializer": {"class_name": "Zeros", "config": {}}, "moving_variance_initializer": {"class_name": "Ones", "config": {}}, "beta_regularizer": null, "gamma_regularizer": null, "beta_constraint": null, "gamma_constraint": null}, "inbound_nodes": [[["conv2d_601", 0, 0, {}]]]}, {"name": "activation_598", "class_name": "Activation", "config": {"name": "activation_598", "trainable": false, "activation": "relu"}, "inbound_nodes": [[["batch_normalization_598", 0, 0, {}]]]}, {"name": "activation_601", "class_name": "Activation", "config": {"name": "activation_601", "trainable": false, "activation": "relu"}, "inbound_nodes": [[["batch_normalization_601", 0, 0, {}]]]}, {"name": "block8_8_mixed", "class_name": "Concatenate", "config": {"name": "block8_8_mixed", "trainable": false, "axis": 3}, "inbound_nodes": [[["activation_598", 0, 0, {}], ["activation_601", 0, 0, {}]]]}, {"name": "block8_8_conv", "class_name": "Conv2D", "config": {"name": "block8_8_conv", "trainable": false, "filters": 2080, "kernel_size": [1, 1], "strides": [1, 1], "padding": "same", "data_format": "channels_last", "dilation_rate": [1, 1], "activation": "linear", "use_bias": true, "kernel_initializer": {"class_name": "VarianceScaling", "config": {"scale": 1.0, "mode": "fan_avg", "distribution": "uniform", "seed": null}}, "bias_initializer": {"class_name": "Zeros", "config": {}}, "kernel_regularizer": null, "bias_regularizer": null, "activity_regularizer": null, "kernel_constraint": null, "bias_constraint": null}, "inbound_nodes": [[["block8_8_mixed", 0, 0, {}]]]}, {"name": "block8_8", "class_name": "Lambda", "config": {"name": "block8_8", "trainable": false, "function": ["4wIAAAAAAAAAAgAAAAMAAABTAAAAcxQAAAB8AGQBGQB8AGQCGQB8ARQAFwBTACkDTukAAAAA6QEA\nAACpACkC2gZpbnB1dHPaBXNjYWxlcgMAAAByAwAAAPpnL1VzZXJzL3Nlby1iLy52aXJ0dWFsZW52\ncy9wbGFpZDM3L2xpYi9weXRob24zLjcvc2l0ZS1wYWNrYWdlcy9rZXJhc19hcHBsaWNhdGlvbnMv\naW5jZXB0aW9uX3Jlc25ldF92Mi5wedoIPGxhbWJkYT6oAAAA8wAAAAA=\n", null, null], "function_type": "lambda", "output_shape": [19, 19, 2080], "output_shape_type": "raw", "arguments": {"scale": 0.2}}, "inbound_nodes": [[["block8_7_ac", 0, 0, {}], ["block8_8_conv", 0, 0, {}]]]}, {"name": "block8_8_ac", "class_name": "Activation", "config": {"name": "block8_8_ac", "trainable": false, "activation": "relu"}, "inbound_nodes": [[["block8_8", 0, 0, {}]]]}, {"name": "conv2d_603", "class_name": "Conv2D", "config": {"name": "conv2d_603", "trainable": false, "filters": 192, "kernel_size": [1, 1], "strides": [1, 1], "padding": "same", "data_format": "channels_last", "dilation_rate": [1, 1], "activation": "linear", "use_bias": false, "kernel_initializer": {"class_name": "VarianceScaling", "config": {"scale": 1.0, "mode": "fan_avg", "distribution": "uniform", "seed": null}}, "bias_initializer": {"class_name": "Zeros", "config": {}}, "kernel_regularizer": null, "bias_regularizer": null, "activity_regularizer": null, "kernel_constraint": null, "bias_constraint": null}, "inbound_nodes": [[["block8_8_ac", 0, 0, {}]]]}, {"name": "batch_normalization_603", "class_name": "BatchNormalization", "config": {"name": "batch_normalization_603", "trainable": false, "axis": 3, "momentum": 0.99, "epsilon": 0.001, "center": true, "scale": false, "beta_initializer": {"class_name": "Zeros", "config": {}}, "gamma_initializer": {"class_name": "Ones", "config": {}}, "moving_mean_initializer": {"class_name": "Zeros", "config": {}}, "moving_variance_initializer": {"class_name": "Ones", "config": {}}, "beta_regularizer": null, "gamma_regularizer": null, "beta_constraint": null, "gamma_constraint": null}, "inbound_nodes": [[["conv2d_603", 0, 0, {}]]]}, {"name": "activation_603", "class_name": "Activation", "config": {"name": "activation_603", "trainable": false, "activation": "relu"}, "inbound_nodes": [[["batch_normalization_603", 0, 0, {}]]]}, {"name": "conv2d_604", "class_name": "Conv2D", "config": {"name": "conv2d_604", "trainable": false, "filters": 224, "kernel_size": [1, 3], "strides": [1, 1], "padding": "same", "data_format": "channels_last", "dilation_rate": [1, 1], "activation": "linear", "use_bias": false, "kernel_initializer": {"class_name": "VarianceScaling", "config": {"scale": 1.0, "mode": "fan_avg", "distribution": "uniform", "seed": null}}, "bias_initializer": {"class_name": "Zeros", "config": {}}, "kernel_regularizer": null, "bias_regularizer": null, "activity_regularizer": null, "kernel_constraint": null, "bias_constraint": null}, "inbound_nodes": [[["activation_603", 0, 0, {}]]]}, {"name": "batch_normalization_604", "class_name": "BatchNormalization", "config": {"name": "batch_normalization_604", "trainable": false, "axis": 3, "momentum": 0.99, "epsilon": 0.001, "center": true, "scale": false, "beta_initializer": {"class_name": "Zeros", "config": {}}, "gamma_initializer": {"class_name": "Ones", "config": {}}, "moving_mean_initializer": {"class_name": "Zeros", "config": {}}, "moving_variance_initializer": {"class_name": "Ones", "config": {}}, "beta_regularizer": null, "gamma_regularizer": null, "beta_constraint": null, "gamma_constraint": null}, "inbound_nodes": [[["conv2d_604", 0, 0, {}]]]}, {"name": "activation_604", "class_name": "Activation", "config": {"name": "activation_604", "trainable": false, "activation": "relu"}, "inbound_nodes": [[["batch_normalization_604", 0, 0, {}]]]}, {"name": "conv2d_602", "class_name": "Conv2D", "config": {"name": "conv2d_602", "trainable": false, "filters": 192, "kernel_size": [1, 1], "strides": [1, 1], "padding": "same", "data_format": "channels_last", "dilation_rate": [1, 1], "activation": "linear", "use_bias": false, "kernel_initializer": {"class_name": "VarianceScaling", "config": {"scale": 1.0, "mode": "fan_avg", "distribution": "uniform", "seed": null}}, "bias_initializer": {"class_name": "Zeros", "config": {}}, "kernel_regularizer": null, "bias_regularizer": null, "activity_regularizer": null, "kernel_constraint": null, "bias_constraint": null}, "inbound_nodes": [[["block8_8_ac", 0, 0, {}]]]}, {"name": "conv2d_605", "class_name": "Conv2D", "config": {"name": "conv2d_605", "trainable": false, "filters": 256, "kernel_size": [3, 1], "strides": [1, 1], "padding": "same", "data_format": "channels_last", "dilation_rate": [1, 1], "activation": "linear", "use_bias": false, "kernel_initializer": {"class_name": "VarianceScaling", "config": {"scale": 1.0, "mode": "fan_avg", "distribution": "uniform", "seed": null}}, "bias_initializer": {"class_name": "Zeros", "config": {}}, "kernel_regularizer": null, "bias_regularizer": null, "activity_regularizer": null, "kernel_constraint": null, "bias_constraint": null}, "inbound_nodes": [[["activation_604", 0, 0, {}]]]}, {"name": "batch_normalization_602", "class_name": "BatchNormalization", "config": {"name": "batch_normalization_602", "trainable": false, "axis": 3, "momentum": 0.99, "epsilon": 0.001, "center": true, "scale": false, "beta_initializer": {"class_name": "Zeros", "config": {}}, "gamma_initializer": {"class_name": "Ones", "config": {}}, "moving_mean_initializer": {"class_name": "Zeros", "config": {}}, "moving_variance_initializer": {"class_name": "Ones", "config": {}}, "beta_regularizer": null, "gamma_regularizer": null, "beta_constraint": null, "gamma_constraint": null}, "inbound_nodes": [[["conv2d_602", 0, 0, {}]]]}, {"name": "batch_normalization_605", "class_name": "BatchNormalization", "config": {"name": "batch_normalization_605", "trainable": false, "axis": 3, "momentum": 0.99, "epsilon": 0.001, "center": true, "scale": false, "beta_initializer": {"class_name": "Zeros", "config": {}}, "gamma_initializer": {"class_name": "Ones", "config": {}}, "moving_mean_initializer": {"class_name": "Zeros", "config": {}}, "moving_variance_initializer": {"class_name": "Ones", "config": {}}, "beta_regularizer": null, "gamma_regularizer": null, "beta_constraint": null, "gamma_constraint": null}, "inbound_nodes": [[["conv2d_605", 0, 0, {}]]]}, {"name": "activation_602", "class_name": "Activation", "config": {"name": "activation_602", "trainable": false, "activation": "relu"}, "inbound_nodes": [[["batch_normalization_602", 0, 0, {}]]]}, {"name": "activation_605", "class_name": "Activation", "config": {"name": "activation_605", "trainable": false, "activation": "relu"}, "inbound_nodes": [[["batch_normalization_605", 0, 0, {}]]]}, {"name": "block8_9_mixed", "class_name": "Concatenate", "config": {"name": "block8_9_mixed", "trainable": false, "axis": 3}, "inbound_nodes": [[["activation_602", 0, 0, {}], ["activation_605", 0, 0, {}]]]}, {"name": "block8_9_conv", "class_name": "Conv2D", "config": {"name": "block8_9_conv", "trainable": false, "filters": 2080, "kernel_size": [1, 1], "strides": [1, 1], "padding": "same", "data_format": "channels_last", "dilation_rate": [1, 1], "activation": "linear", "use_bias": true, "kernel_initializer": {"class_name": "VarianceScaling", "config": {"scale": 1.0, "mode": "fan_avg", "distribution": "uniform", "seed": null}}, "bias_initializer": {"class_name": "Zeros", "config": {}}, "kernel_regularizer": null, "bias_regularizer": null, "activity_regularizer": null, "kernel_constraint": null, "bias_constraint": null}, "inbound_nodes": [[["block8_9_mixed", 0, 0, {}]]]}, {"name": "block8_9", "class_name": "Lambda", "config": {"name": "block8_9", "trainable": false, "function": ["4wIAAAAAAAAAAgAAAAMAAABTAAAAcxQAAAB8AGQBGQB8AGQCGQB8ARQAFwBTACkDTukAAAAA6QEA\nAACpACkC2gZpbnB1dHPaBXNjYWxlcgMAAAByAwAAAPpnL1VzZXJzL3Nlby1iLy52aXJ0dWFsZW52\ncy9wbGFpZDM3L2xpYi9weXRob24zLjcvc2l0ZS1wYWNrYWdlcy9rZXJhc19hcHBsaWNhdGlvbnMv\naW5jZXB0aW9uX3Jlc25ldF92Mi5wedoIPGxhbWJkYT6oAAAA8wAAAAA=\n", null, null], "function_type": "lambda", "output_shape": [19, 19, 2080], "output_shape_type": "raw", "arguments": {"scale": 0.2}}, "inbound_nodes": [[["block8_8_ac", 0, 0, {}], ["block8_9_conv", 0, 0, {}]]]}, {"name": "block8_9_ac", "class_name": "Activation", "config": {"name": "block8_9_ac", "trainable": false, "activation": "relu"}, "inbound_nodes": [[["block8_9", 0, 0, {}]]]}, {"name": "conv2d_607", "class_name": "Conv2D", "config": {"name": "conv2d_607", "trainable": false, "filters": 192, "kernel_size": [1, 1], "strides": [1, 1], "padding": "same", "data_format": "channels_last", "dilation_rate": [1, 1], "activation": "linear", "use_bias": false, "kernel_initializer": {"class_name": "VarianceScaling", "config": {"scale": 1.0, "mode": "fan_avg", "distribution": "uniform", "seed": null}}, "bias_initializer": {"class_name": "Zeros", "config": {}}, "kernel_regularizer": null, "bias_regularizer": null, "activity_regularizer": null, "kernel_constraint": null, "bias_constraint": null}, "inbound_nodes": [[["block8_9_ac", 0, 0, {}]]]}, {"name": "batch_normalization_607", "class_name": "BatchNormalization", "config": {"name": "batch_normalization_607", "trainable": false, "axis": 3, "momentum": 0.99, "epsilon": 0.001, "center": true, "scale": false, "beta_initializer": {"class_name": "Zeros", "config": {}}, "gamma_initializer": {"class_name": "Ones", "config": {}}, "moving_mean_initializer": {"class_name": "Zeros", "config": {}}, "moving_variance_initializer": {"class_name": "Ones", "config": {}}, "beta_regularizer": null, "gamma_regularizer": null, "beta_constraint": null, "gamma_constraint": null}, "inbound_nodes": [[["conv2d_607", 0, 0, {}]]]}, {"name": "activation_607", "class_name": "Activation", "config": {"name": "activation_607", "trainable": false, "activation": "relu"}, "inbound_nodes": [[["batch_normalization_607", 0, 0, {}]]]}, {"name": "conv2d_608", "class_name": "Conv2D", "config": {"name": "conv2d_608", "trainable": false, "filters": 224, "kernel_size": [1, 3], "strides": [1, 1], "padding": "same", "data_format": "channels_last", "dilation_rate": [1, 1], "activation": "linear", "use_bias": false, "kernel_initializer": {"class_name": "VarianceScaling", "config": {"scale": 1.0, "mode": "fan_avg", "distribution": "uniform", "seed": null}}, "bias_initializer": {"class_name": "Zeros", "config": {}}, "kernel_regularizer": null, "bias_regularizer": null, "activity_regularizer": null, "kernel_constraint": null, "bias_constraint": null}, "inbound_nodes": [[["activation_607", 0, 0, {}]]]}, {"name": "batch_normalization_608", "class_name": "BatchNormalization", "config": {"name": "batch_normalization_608", "trainable": false, "axis": 3, "momentum": 0.99, "epsilon": 0.001, "center": true, "scale": false, "beta_initializer": {"class_name": "Zeros", "config": {}}, "gamma_initializer": {"class_name": "Ones", "config": {}}, "moving_mean_initializer": {"class_name": "Zeros", "config": {}}, "moving_variance_initializer": {"class_name": "Ones", "config": {}}, "beta_regularizer": null, "gamma_regularizer": null, "beta_constraint": null, "gamma_constraint": null}, "inbound_nodes": [[["conv2d_608", 0, 0, {}]]]}, {"name": "activation_608", "class_name": "Activation", "config": {"name": "activation_608", "trainable": false, "activation": "relu"}, "inbound_nodes": [[["batch_normalization_608", 0, 0, {}]]]}, {"name": "conv2d_606", "class_name": "Conv2D", "config": {"name": "conv2d_606", "trainable": false, "filters": 192, "kernel_size": [1, 1], "strides": [1, 1], "padding": "same", "data_format": "channels_last", "dilation_rate": [1, 1], "activation": "linear", "use_bias": false, "kernel_initializer": {"class_name": "VarianceScaling", "config": {"scale": 1.0, "mode": "fan_avg", "distribution": "uniform", "seed": null}}, "bias_initializer": {"class_name": "Zeros", "config": {}}, "kernel_regularizer": null, "bias_regularizer": null, "activity_regularizer": null, "kernel_constraint": null, "bias_constraint": null}, "inbound_nodes": [[["block8_9_ac", 0, 0, {}]]]}, {"name": "conv2d_609", "class_name": "Conv2D", "config": {"name": "conv2d_609", "trainable": false, "filters": 256, "kernel_size": [3, 1], "strides": [1, 1], "padding": "same", "data_format": "channels_last", "dilation_rate": [1, 1], "activation": "linear", "use_bias": false, "kernel_initializer": {"class_name": "VarianceScaling", "config": {"scale": 1.0, "mode": "fan_avg", "distribution": "uniform", "seed": null}}, "bias_initializer": {"class_name": "Zeros", "config": {}}, "kernel_regularizer": null, "bias_regularizer": null, "activity_regularizer": null, "kernel_constraint": null, "bias_constraint": null}, "inbound_nodes": [[["activation_608", 0, 0, {}]]]}, {"name": "batch_normalization_606", "class_name": "BatchNormalization", "config": {"name": "batch_normalization_606", "trainable": true, "axis": 3, "momentum": 0.99, "epsilon": 0.001, "center": true, "scale": false, "beta_initializer": {"class_name": "Zeros", "config": {}}, "gamma_initializer": {"class_name": "Ones", "config": {}}, "moving_mean_initializer": {"class_name": "Zeros", "config": {}}, "moving_variance_initializer": {"class_name": "Ones", "config": {}}, "beta_regularizer": null, "gamma_regularizer": null, "beta_constraint": null, "gamma_constraint": null}, "inbound_nodes": [[["conv2d_606", 0, 0, {}]]]}, {"name": "batch_normalization_609", "class_name": "BatchNormalization", "config": {"name": "batch_normalization_609", "trainable": true, "axis": 3, "momentum": 0.99, "epsilon": 0.001, "center": true, "scale": false, "beta_initializer": {"class_name": "Zeros", "config": {}}, "gamma_initializer": {"class_name": "Ones", "config": {}}, "moving_mean_initializer": {"class_name": "Zeros", "config": {}}, "moving_variance_initializer": {"class_name": "Ones", "config": {}}, "beta_regularizer": null, "gamma_regularizer": null, "beta_constraint": null, "gamma_constraint": null}, "inbound_nodes": [[["conv2d_609", 0, 0, {}]]]}, {"name": "activation_606", "class_name": "Activation", "config": {"name": "activation_606", "trainable": true, "activation": "relu"}, "inbound_nodes": [[["batch_normalization_606", 0, 0, {}]]]}, {"name": "activation_609", "class_name": "Activation", "config": {"name": "activation_609", "trainable": true, "activation": "relu"}, "inbound_nodes": [[["batch_normalization_609", 0, 0, {}]]]}, {"name": "block8_10_mixed", "class_name": "Concatenate", "config": {"name": "block8_10_mixed", "trainable": true, "axis": 3}, "inbound_nodes": [[["activation_606", 0, 0, {}], ["activation_609", 0, 0, {}]]]}, {"name": "block8_10_conv", "class_name": "Conv2D", "config": {"name": "block8_10_conv", "trainable": true, "filters": 2080, "kernel_size": [1, 1], "strides": [1, 1], "padding": "same", "data_format": "channels_last", "dilation_rate": [1, 1], "activation": "linear", "use_bias": true, "kernel_initializer": {"class_name": "VarianceScaling", "config": {"scale": 1.0, "mode": "fan_avg", "distribution": "uniform", "seed": null}}, "bias_initializer": {"class_name": "Zeros", "config": {}}, "kernel_regularizer": null, "bias_regularizer": null, "activity_regularizer": null, "kernel_constraint": null, "bias_constraint": null}, "inbound_nodes": [[["block8_10_mixed", 0, 0, {}]]]}, {"name": "block8_10", "class_name": "Lambda", "config": {"name": "block8_10", "trainable": true, "function": ["4wIAAAAAAAAAAgAAAAMAAABTAAAAcxQAAAB8AGQBGQB8AGQCGQB8ARQAFwBTACkDTukAAAAA6QEA\nAACpACkC2gZpbnB1dHPaBXNjYWxlcgMAAAByAwAAAPpnL1VzZXJzL3Nlby1iLy52aXJ0dWFsZW52\ncy9wbGFpZDM3L2xpYi9weXRob24zLjcvc2l0ZS1wYWNrYWdlcy9rZXJhc19hcHBsaWNhdGlvbnMv\naW5jZXB0aW9uX3Jlc25ldF92Mi5wedoIPGxhbWJkYT6oAAAA8wAAAAA=\n", null, null], "function_type": "lambda", "output_shape": [19, 19, 2080], "output_shape_type": "raw", "arguments": {"scale": 1.0}}, "inbound_nodes": [[["block8_9_ac", 0, 0, {}], ["block8_10_conv", 0, 0, {}]]]}, {"name": "conv_7b", "class_name": "Conv2D", "config": {"name": "conv_7b", "trainable": true, "filters": 1536, "kernel_size": [1, 1], "strides": [1, 1], "padding": "same", "data_format": "channels_last", "dilation_rate": [1, 1], "activation": "linear", "use_bias": false, "kernel_initializer": {"class_name": "VarianceScaling", "config": {"scale": 1.0, "mode": "fan_avg", "distribution": "uniform", "seed": null}}, "bias_initializer": {"class_name": "Zeros", "config": {}}, "kernel_regularizer": null, "bias_regularizer": null, "activity_regularizer": null, "kernel_constraint": null, "bias_constraint": null}, "inbound_nodes": [[["block8_10", 0, 0, {}]]]}, {"name": "conv_7b_bn", "class_name": "BatchNormalization", "config": {"name": "conv_7b_bn", "trainable": true, "axis": 3, "momentum": 0.99, "epsilon": 0.001, "center": true, "scale": false, "beta_initializer": {"class_name": "Zeros", "config": {}}, "gamma_initializer": {"class_name": "Ones", "config": {}}, "moving_mean_initializer": {"class_name": "Zeros", "config": {}}, "moving_variance_initializer": {"class_name": "Ones", "config": {}}, "beta_regularizer": null, "gamma_regularizer": null, "beta_constraint": null, "gamma_constraint": null}, "inbound_nodes": [[["conv_7b", 0, 0, {}]]]}, {"name": "conv_7b_ac", "class_name": "Activation", "config": {"name": "conv_7b_ac", "trainable": true, "activation": "relu"}, "inbound_nodes": [[["conv_7b_bn", 0, 0, {}]]]}, {"name": "global_average_pooling2d_3", "class_name": "GlobalAveragePooling2D", "config": {"name": "global_average_pooling2d_3", "trainable": true, "data_format": "channels_last"}, "inbound_nodes": [[["conv_7b_ac", 0, 0, {}]]]}, {"name": "dense_3", "class_name": "Dense", "config": {"name": "dense_3", "trainable": true, "units": 1024, "activation": "relu", "use_bias": true, "kernel_initializer": {"class_name": "VarianceScaling", "config": {"scale": 1.0, "mode": "fan_avg", "distribution": "uniform", "seed": null}}, "bias_initializer": {"class_name": "Zeros", "config": {}}, "kernel_regularizer": null, "bias_regularizer": null, "activity_regularizer": null, "kernel_constraint": null, "bias_constraint": null}, "inbound_nodes": [[["global_average_pooling2d_3", 0, 0, {}]]]}, {"name": "softmax", "class_name": "Dense", "config": {"name": "softmax", "trainable": true, "units": 11, "activation": "softmax", "use_bias": true, "kernel_initializer": {"class_name": "VarianceScaling", "config": {"scale": 1.0, "mode": "fan_avg", "distribution": "uniform", "seed": null}}, "bias_initializer": {"class_name": "Zeros", "config": {}}, "kernel_regularizer": null, "bias_regularizer": null, "activity_regularizer": null, "kernel_constraint": null, "bias_constraint": null}, "inbound_nodes": [[["dense_3", 0, 0, {}]]]}], "input_layers": [["input_4", 0, 0]], "output_layers": [["softmax", 0, 0]]}, "keras_version": "2.2.4", "backend": "plaidml.keras.backend"}